cvdash/tasks/EtE_localization/net.pth (torch_old, 329436 bytes, 10 tensors)

conv1.weight f4 [6, 3, 3, 3]
-0.12138734 0.05156865 0.11658712 0.028506782 0.06757194 -0.1113152 0.06746099 -0.16178723
0.004739516 -0.1398968 -0.013321694 -0.059568085 0.0774097 0.081140384 0.07107815 -0.19292055
0.18163115 0.15066513 0.0184089 -0.15103984 0.06882455 0.13369171 -0.057808507 -0.1865337
-0.037462562 0.1806294 0.022444308 -0.039286688 -0.16516061 0.0652764 0.029890172 0.15448038
-0.034052365 0.10895405 -0.08315058 -0.06396331 0.12829839 -0.047496833 -0.08063714 -0.120149665
0.07264925 0.061316825 -0.004545521 -0.1258533 -0.18971576 0.14183746 0.08609926 -0.01742573
0.0432051 0.039149955 0.121158704 -0.065297976 -0.095852196 0.08497588 -0.106207445 -0.111492574
-0.18310764 0.094105594 -0.16328152 -0.161177 -0.03357014 -0.15845777 -0.10855339 -0.09866987
-0.13069731 -0.109074764 -0.120206855 0.05086284 0.18435974 0.11673338 -0.08807438 -0.03703381
0.114748456 -0.13490683 -0.013554049 0.19091758 -0.14711824 0.01016213 0.08169267 -0.07874657
0.0072661894 0.10648794 -0.18173157 0.02273157 0.0060524447 0.18748885 -0.043929916 -0.064847395
0.124192655 -0.05123715 0.050983854 -0.14220966 -0.13974118 0.11545272 0.028695742 -0.13143508
-0.16620353 -0.12017761 -0.030646943 -0.14483503 0.07893491 -0.114167035 0.1647785 -0.18513943
-0.021042254 -0.021621406 0.099107124 0.15035369 -0.07308542 -0.17176647 0.11372035 0.017308291
-0.1394212 -0.17942658 0.14321922 0.14403947 -0.04267122 0.12166386 0.076343596 0.04170781
3.6775808e-05 -0.013399501 -0.08473604 0.10912029 0.058211286 0.004762992 0.09076054 0.07403833
0.13676085 0.18950714 -0.016829124 -0.042681035 0.13936435 0.18352054 0.053880736 -0.17045575
0.112163745 -0.09838176 -0.12946664 -0.047034953 0.07723146 0.006158735 0.17023043 -0.14599498
0.17706755 -0.17107071 0.015039949 0.012951584 0.046479043 0.019036712 -0.011196417 -0.13002053
-0.11171175 0.011593309 -0.13150284 -0.03722529 -0.05057977 -0.1232248 -0.031596698 0.11978543
-0.01152813 0.068545036
00000000: ed99 f8bd a639 533d 3ac5 ee3d 0e87 e93c
00000010: 2863 8a3d 39f9 e3bd fd28 8a3d 8dab 25be
00000020: f14d 9b3b 1b41 0fbe 3c43 5abc aafd 73bd
00000030: fa88 9e3d ee2c a63d 6c91 913d f78c 45be
00000040: 84fd 393e f647 1a3e 43ce 963c 30aa 1abe
00000050: e3f3 8c3d 7be6 083e 9dc8 6cbd b102 3fbe
00000060: 5872 19bd eaf6 383e 20dd b73c 14eb 20bd
00000070: dd1f 29be a2af 853d 3cdc f43c 1b30 1e3e
00000080: 7e7a 0bbd 4d23 df3d da4a aabd 32ff 82bd
00000090: a760 033e 0a8c 42bd 1625 a5bd 0711 f6bd
000000a0: 21c9 943d 5a27 7b3d 98f2 94bb b0df 00be
000000b0: d944 42be d73d 113e cf54 b03d 68c0 8ebc
000000c0: d5f7 303d b45b 203d 0e22 f83d f2ba 85bd
000000d0: 284e c4bd d607 ae3d 4a83 d9bd 3856 e4bd
000000e0: 9280 3bbe 6fba c03d 4533 27be 950b 25be
000000f0: d880 09bd c142 22be 3d51 debd 6e13 cabd
00000100: 84d5 05be 9762 dfbd 032f f6bd 8e55 503d
00000110: cdc8 3c3e e911 ef3d 5760 b4bd c4b0 17bd
00000120: 3d01 eb3d 0425 0abe cd11 5ebc e67f 433e
00000130: 2aa6 16be 107f 263c 7d4e a73d e245 a1bd
00000140: 3719 ee3b 5916 da3d d717 3abe 8f37 ba3c
00000150: 9653 c63b 14fd 3f3e dbef 33bd b6ce 84bd
00000160: b858 fe3d 0cde 51bd 72d4 503d 699f 11be
00000170: 5018 0fbe 7a72 ec3d 5513 eb3c eb96 06be
00000180: 4231 2abe ae1f f6bd 4c0f fbbc a24f 14be
00000190: a0a8 a13d 68d0 e9bd b2bb 283e 3195 3dbe
000001a0: ce60 acbc 601f b1bc adf8 ca3d 51f6 193e
000001b0: cfad 95bd 8de3 2fbe 37e6 e83d 1eca 8d3c
000001c0: 6ec4 0ebe 9abb 37be 0fa8 123e 157f 133e
000001d0: 04c8 2ebd e72a f93d 085a 9c3d cfd5 2a3d
000001e0: b93f 1a38 9589 5bbc 178a adbd 757a df3d
000001f0: f56e 6e3d df12 9c3b a9e0 b93d 68a1 973d
00000200: 090b 0c3e 290e 423e 3bdd 89bc 4fd2 2ebd
00000210: 87b5 0e3e cfec 3b3e 0cb2 5c3d f48b 2ebe
00000220: 1bb6 e53d 607c c9bd e792 04be b9a7 40bd
00000230: 872b 9e3d 37cf c93b e350 2e3e b57f 15be
00000240: 3251 353e 292d 2fbe 1e6a 763c e132 543c
00000250: cf60 3e3d e1f2 9b3c 2d71 37bc 1a24 05be
00000260: 21c9 e4bd ddf1 3d3c aea8 06be 8c79 18bd
00000270: bc2c 4fbd 495d fcbd 8a6b 01bd 1052 f53d
00000280: 7be0 3cbc 5761 8c3d

conv1.bias f4 [6]
0.18827604 0.08024708 -0.05108106 0.026503712 -0.02809559 0.11818108
00000000: 6fcb 403e 9558 a43d 603a 51bd 501e d93c
00000010: b928 e6bc ec08 f23d

conv2.weight f4 [16, 6, 4, 4]
-0.001080515 -0.09013867 0.048656672 -0.026361536 -0.054347932 -0.061548542 0.016477384 -0.013918525
0.014211828 0.040333673 0.08093029 -0.097859815 -0.09487951 0.0031395042 -0.00843659 0.031255767
-0.088930696 0.049178924 -0.09458719 -0.07414933 -0.002114883 0.082157694 0.100137174 0.057434607
0.050920576 0.030515412 0.09706559 0.013782002 -0.016977176 0.092813015 0.078327715 -0.010193722
-0.0050998502 0.0051365974 0.022577604 -0.004387172 -0.06862694 0.10043263 0.051892284 -0.08147634
-0.0074540027 0.09442778 -0.037708964 0.07234138 -0.038714793 0.03610653 0.07671688 0.001320863
0.10002222 0.08295465 -0.053465303 0.02644942 0.011247235 0.041111834 -0.0566227 0.003653905
0.03939644 0.09348586 -0.06634882 -0.09554104 0.031591468 -0.08048345 0.043085665 0.05017689
0.031855125 -0.09320892 -0.09547627 0.009971501 -0.023297906 -0.10002065 -0.025523705 0.08183012
0.022244234 0.05543496 -0.08746152 0.022302235 0.011520854 -0.042128287 0.016360328 -0.025937691
0.03393452 0.09049149 0.07013979 -0.063163824 0.0895148 0.05997841 -0.030380659 0.060932733
-0.0029560179 0.05876112 -0.0039821584 0.07096152 -0.0065090093 0.0873693 0.09699609 -0.006269857
0.03989576 -0.0990683 0.08879107 0.10042741 0.04439021 0.050266437 -0.019058 0.026802596
0.015850805 -0.011268148 0.029899735 -0.026219191 -0.09731087 0.023458492 -0.0860232 0.03293355
0.038371775 0.04409207 0.06041599 0.08895569 -0.093362115 -0.07299477 0.0879195 0.08783546
-0.08864824 0.016135024 -0.06818809 0.0710476 -0.06117565 -0.034936246 0.029629566 -0.01373238
0.09413928 0.089171134 0.011448417 0.08953363 0.07782166 -0.03179319 0.060141504 -0.031692434
-0.08694569 -0.054848168 -0.07927065 -0.07686434 -0.010272325 0.0061560767 0.090115525 -0.017926227
0.054228075 -0.06914778 -0.05102036 -0.0505103 0.0491367 -0.0022332447 0.0059002186 0.034027036
0.09651873 -0.08347595 -0.08442573 -0.04838836 0.07009422 -0.040247783 -0.0045454884 -0.09709228
0.0556697 0.053603943 0.04339739 0.013817915 -0.022098843 -0.030452777 -0.0023672187 0.052540585
0.03066103 -0.080810055 0.01010933 -0.0104374215 0.001286985 0.08828642 0.04059634 -0.040959947
0.05048471 -0.011747518 -0.05902441 0.026149167 0.035064112 0.0716618 -0.042829886 -0.017364865
-0.074257545 0.03139554 -0.07959574 -0.08829892 0.08869171 -0.04824543 0.08270405 -0.10187847
-0.042821553 -0.08876951 0.01805639 -0.03426865 0.01980717 0.0024182003 0.08979586 0.012618104
-0.052563664 0.04771934 0.014724076 -0.04671564 0.0989872 0.08583481 0.06673829 0.015336123
-0.037212104 0.10054807 0.057302322 -0.014183444 0.06382781 0.06787385 0.02965061 0.08064086
0.10213061 0.057415195 0.04477545 0.05045217 0.07297718 0.08728048 -0.09249717 -0.007642002
0.080815606 -0.072076745 -0.049081255 0.09276083 0.014888809 0.063143566 -0.048715793 0.04520549
0.025794769 0.10154877 0.081485584 -0.09842045 0.0019979004 0.0435586 -0.025588688 -0.068148
-0.00424868 -0.053990286 0.09238719 -0.050374113 0.04399162 0.028744217 -0.054012567 -0.06148089
-0.0143131185 0.08060331 -0.05224709 0.007732993 0.04956976 -0.02287993 0.049151987 0.085093535
00000000: 11a0 8dba 9f9a b8bd 384c 473d 26f4 d7bc
00000010: f09b 5ebd 531a 7cbd 94fb 863c 860a 64bc
00000020: bad8 683c ec34 253d c8be a53d ba6a c8bd
00000030: 3050 c2bd 24c0 4d3b a039 0abc 0c06 003d
00000040: 4c21 b6bd d76f 493d eeb6 c1bd 9bdb 97bd
00000050: d999 0abb 4b42 a83d b814 cd3d 8d40 6b3d
00000060: 1892 503d 75fb f93c 53ca c63d e8cd 613c
00000070: b813 8bbc c014 be3d 486a a03d 9203 27bc
00000080: a51c a7bb e750 a83b abf4 b83c 44c2 8fbb
00000090: 488c 8cbd 9faf cd3d 018d 543d 11dd a6bd
000000a0: b540 f4bb 5a63 c13d b774 1abd b827 943d
000000b0: 6793 1ebd 71e4 133d bd1d 9d3d cf20 ad3a
000000c0: 73d8 cc3d 21e4 a93d 6ffe 5abd 74ac d83c
000000d0: 5346 383c e264 283d 34ed 67bd 5a76 6f3b
000000e0: 295e 213d 8475 bf3d e4e1 87bd 05ab c3bd
000000f0: 0e66 013d 82d4 a4bd 987a 303d 4886 4d3d
00000100: 857a 023d 51e4 bebd 1089 c3bd 825f 233c
00000110: 40db bebc a0d7 ccbd 1717 d1bc 8d96 a73d
00000120: 8a39 b63c c50f 633d 071f b3bd 2db3 b63c
00000130: f7c1 3c3c b68e 2cbd 1806 863c 487b d4bc
00000140: ecfe 0a3d 9a53 b93d 73a5 8f3d 095c 81bd
00000150: 8953 b73d ecab 753d dce0 f8bc 9a94 793d
00000160: c0b9 41bb 80af 703d c47c 82bb 4654 913d
00000170: 8749 d5bb adee b23d e3a5 c63d 5f73 cdbb
00000180: bd69 233d 52e4 cabd 18d8 b53d e3ac cd3d
00000190: 82d2 353d 2ee4 4d3d 861f 9cbc 1e91 db3c
000001a0: 8cd9 813c 0a9e 38bc 4af0 f43c a1c9 d6bc
000001b0: ec4a c7bd 062c c03c ee2c b0bd 55e5 063d
000001c0: b92b 1d3d e399 343d c276 773d 672e b63d
000001d0: a334 bfbd 487e 95bd 240f b43d 14e3 b33d
000001e0: 358d b5bd 992d 843c 33a6 8bbd 6781 913d
000001f0: 5293 7abd 4f19 0fbd b4b9 f23c c7fd 60bc
00000200: 18cc c03d 5b9f b63d 2492 3b3c 685d b73d
00000210: f660 9f3d 9339 02bd f056 763d edcf 01bd
00000220: 9510 b2bd 79a8 60bd a758 a2bd 0d6b 9dbd
00000230: 414d 28bc eab8 c93b 7d8e b83d 06da 92bc
00000240: 421e 5e3d 5a9d 8dbd bafa 50bd e3e3 4ebd
00000250: 9043 493d a15b 12bb 9f56 c13b ef5f 0b3d
00000260: 9dab c53d 70f5 aabd 66e7 acbd df32 46bd
00000270: 8f8d 8f3d dcda 24bd 52f2 94bb 51d8 c6bd
00000280: e905 643d cf8f 5b3d 76c1 313d 8964 623c
00000290: a208 b5bc 1a78 f9bc 5723 1bbb cc34 573d
000002a0: d72c fb3c be7f a5bd 9aa1 253c b801 2bbc
000002b0: 0db0 a83a 83cf b43d 5948 263d 9ec5 27bd
000002c0: 0ec9 4e3d a978 40bc 94c3 71bd c736 d63c
000002d0: 639f 0f3d 6cc3 923d 646e 2fbd c340 8ebc
000002e0: 5714 98bd 9c98 003d 1703 a3bd 10d6 b4bd
000002f0: 00a4 b53d 009d 45bd be60 a93d a9a5 d0bd
00000300: a765 2fbd cacc b5bd ffea 933c 495d 0cbd
00000310: a542 a23c ab7a 1e3b e4e6 b73d 2abc 4e3c
00000320: ff4c 57bd 5b75 433d 403d 713c e658 3fbd
00000330: cdb9 ca3d 29ca af3d 16ae 883d 5d44 7b3c
00000340: b86b 18bd 26ec cd3d d7b5 6a3d ad61 68bc
00000350: 28b8 823d 7201 8b3d d6e5 f23c 0927 a53d
00000360: da29 d13d 322c 6b3d 7666 373d efa6 4e3d
00000370: 0f75 953d 1cc0 b23d 286f bdbd c269 fabb
00000380: a782 a53d f99c 93bd 6d09 49bd 64f9 bd3d
00000390: 31f0 733c 6a51 813d 368a 47bd 6429 393d
000003a0: 8d4f d33c cdf8 cf3d eae1 a63d a990 c9bd
000003b0: 35ef 023b 816a 323d 5e9f d1bc 2e91 8bbd
000003c0: 8338 8bbb eb24 5dbd 7f35 bd3d 1655 4ebd
000003d0: 8f30 343d fe78 eb3c 483c 5dbd 63d3 7bbd
000003e0: 9281 6abc 5913 a53d 0b01 56bd 0c65 fd3b
000003f0: a909 4b3d b16e bbbc 9853 493d 8545 ae3d

conv2.bias f4 [16]
-0.034563124 0.09128264 0.05874631 0.0086945165 -0.0547717 0.084849834 0.022869756 0.067670286
-0.06366376 -0.028997457 -0.096531235 0.063851416 -0.08436537 0.0028642018 -0.04239567 -0.0809219
00000000: 1092 0dbd 65f2 ba3d f99f 703d 7273 0e3c
00000010: 4a58 60bd c0c5 ad3d 5b59 bb3c b896 8a3d
00000020: 2562 82bd 138c edbc 2bb2 c5bd 88c4 823d
00000030: c0c7 acbd 55b5 3b3b 15a7 2dbd 62ba a5bd

fc1.weight f4 [120, 576]
0.019543167 0.012824401 -0.03758069 0.01444608 0.01127575 -0.023474937 0.003616687 -0.0015386641
-0.02524682 0.041514326 -0.02618219 -0.024030542 0.01381287 -0.021070193 -0.037872817 -0.036445778
-0.019029235 -0.021823775 0.005407855 0.021378163 -0.00608043 0.009448219 -0.018231323 -0.0034505278
-0.014897769 0.016875971 0.019989714 0.0154685415 0.011301581 -0.02484712 -0.0050727874 -0.04133689
-0.027769199 0.03751651 0.01546219 0.0041573904 -0.016954672 -0.030265912 -0.0007376857 -0.009596262
-0.019478902 -0.011509623 -0.008563384 -0.018008124 -0.018183619 0.003039416 0.024966445 -0.01727454
-0.030672848 0.03676634 0.011815071 -0.018886205 0.038633306 -0.040133543 0.0016061515 -0.028636133
0.036571164 0.004793003 0.007879779 0.005240444 -0.009904366 -0.013394877 -0.018567767 -0.022623997
0.002989728 -0.03698979 0.039418023 0.020495202 0.0063209236 -0.0317247 -0.035625227 -0.006981004
-0.019590205 -0.012037203 -0.03616658 -0.040218614 0.020953286 -0.028065195 -0.025778433 -0.017965203
-0.034368124 -0.040358778 0.002570808 -0.022909801 -0.036744215 0.03175466 -0.024844438 0.025569584
-0.0015787929 -0.030075774 0.014953639 0.032291796 0.013731066 0.0064073056 -0.0017915666 -0.035292476
0.023072679 -0.03917351 0.022421826 -0.018579673 -0.03070591 -0.008052226 0.02972633 0.00649013
0.0041387975 0.0174837 -0.035002068 -0.005738348 0.018929023 -0.0007808246 -0.04132437 0.018365566
-0.015444731 -0.039268717 0.021422956 0.028825108 -0.012818893 0.014951337 -0.037774518 -0.030638075
-0.0013011992 -0.013926625 -0.019975847 0.0071982853 0.03837012 0.00635818 0.04135715 -0.02584978
0.03610116 -0.018838352 0.00078747794 0.034912746 -0.035705727 0.021208216 0.02879763 -0.030706977
-0.037145223 0.0072556175 -0.038847364 0.008942109 0.027520012 -0.022234991 -0.0152414795 -0.04039101
0.036518473 0.011408675 -0.014106279 0.029903088 -0.0069741197 0.026469428 0.03758591 -0.017401522
-0.026725193 0.029961716 0.040164564 0.0028146207 -0.013138955 0.04126056 -0.038152695 -0.017567303
0.03336641 0.031655546 0.0052502938 -0.031243673 0.035572346 0.004442647 -0.035506897 -0.0043294877
-0.016796589 0.011895895 -0.028272133 0.016462151 0.018510506 -0.03067727 -0.01138938 0.004618898
0.022595983 0.02845912 -0.0035139434 -0.021351408 0.026549365 0.028001752 -0.0069906972 0.03341529
-0.041516215 0.026588257 -0.023719817 -0.035086945 0.017267663 -0.03977167 0.031544764 -0.0018176734
0.017155275 0.0060567856 0.00900121 -0.026451424 -0.022254556 -0.0063533373 0.022544455 -0.038631447
-0.031062525 -0.025842592 -0.015588691 -0.027533308 -0.000971362 0.011731524 -0.03685012 0.033878203
0.00052350387 0.0057351105 0.024754394 0.022029411 0.027138803 0.0013884716 -0.016030118 -0.017374348
-0.03456617 0.03156856 0.038416017 0.015056182 -0.0035339594 -0.008246347 -0.035297066 0.039552335
-0.035446875 -0.03729862 -0.03856274 0.032723863 0.0044609904 0.0034703203 0.0067577064 -0.014068317
0.034286473 -0.036369227 -0.01699008 -0.02981047 -0.0161473 0.039472613 0.015076246 0.012363877
-0.034460194 0.006687928 0.032832716 0.004103318 0.010515001 0.025745291 0.00788267 -0.012396982
0.014698889 -0.0075674467 -0.0010838062 -0.019311663 -0.02986165 0.030917708 0.018231925 0.0243234
00000000: fe18 a03c 701d 523c 36ee 19bd 40af 6c3c
00000010: ecbd 383c 834e c0bc f005 6d3b 00ad c9ba
00000020: 6bd2 cebc ed0a 2a3d 087c d6bc b3db c4bc
00000030: 604f 623c 669b acbc 8720 1bbd 2b48 15bd
00000040: 33e3 9bbc c6c7 b2bc 6034 b13b 4221 af3c
00000050: 583e c7bb b4cc 1a3c db59 95bc 4022 62bb
00000060: c615 74bc 7a3f 8a3c 78c1 a33c c46f 7d3c
00000070: 442a 393c 308c cbbc a039 a6bb df50 29bd
00000080: 3b7c e3bc e9aa 193d 2055 7d3c b83a 883b
00000090: 86e4 8abc 38f0 f7bc 4061 41ba a439 1dbc
000000a0: 3892 9fbc dc92 3cbc 704d 0cbc c685 93bc
000000b0: d0f5 94bc f030 473b 6e86 cc3c 5683 8dbc
000000c0: a045 fbbc 4d98 163d 0094 413c 3eb7 9abc
000000d0: f53d 1e3d 1263 24bd 8085 d23a 5396 eabc
000000e0: a5cb 153d a00e 9d3b 301a 013c 08b8 ab3b
000000f0: ec45 22bc 3076 5bbc 6e1b 98bc f655 b9bc
00000100: 50ef 433b 9b82 17bd cb74 213d 8ee5 a73c
00000110: c01f cf3b c2f1 01bd c2eb 11bd e8c0 e4bb
00000120: a37b a0bc b037 45bc 6823 14bd 46bc 24bd
00000130: 3aa6 ab3c fbe8 e5bc 4b2d d3bc c32b 93bc
00000140: 97c5 0cbd 3f4f 25bd 007b 283b 56ad bbbc
00000150: 1a81 16bd 2d11 023d 9086 cbbc 4e77 d13c
00000160: 80ef ceba 7861 f6bc 1c00 753c 6744 043d
00000170: 44f8 603c 60f4 d13b 00d3 eaba d88e 10bd
00000180: ea02 bd3c 6774 20bd faad b73c 6634 98bc
00000190: f68a fbbc 7ced 03bc a284 f33c 28ab d43b
000001a0: c09e 873b fa39 8f3c 545e 0fbd c008 bcbb
000001b0: 0a11 9b3c 40b0 4cba be43 29bd 6273 963c
000001c0: e60b 7dbc 3cd8 20bd 327f af3c a222 ec3c
000001d0: 5606 52bc 74f6 743c 74b9 1abd b3fc fabc
000001e0: 008d aaba 802c 64bc 63a4 a3bc 98df eb3b
000001f0: fd29 1d3d 4858 d03b 1d66 293d ebc2 d3bc
00000200: cfde 133d e352 9abc c06e 4e3a ab00 0f3d
00000210: 2b40 12bd dabc ad3c 02e9 eb3c 338d fbbc
00000220: 9725 18bd 88c0 ed3b 6a1e 1fbd ec81 123c
00000230: a671 e13c 2826 b6bc 66b7 79bc 0b71 25bd
00000240: 6594 153d 74eb 3a3c 061e 67bc 52f7 f43c
00000250: 2887 e4bb 6ad6 d83c aff3 193d a38d 8ebc
00000260: cbee dabc 4672 f53c 9983 243d 8075 383b
00000270: c644 57bc d500 293d 0046 1cbd 4ee9 8fbc
00000280: 37ab 083d 3fa9 013d a80a ac3b bbf2 ffbc
00000290: 4fb4 113d a093 913b ae6f 11bd 60de 8dbb
000002a0: 0099 89bc 00e7 423c f69a e7bc a2db 863c
000002b0: 58a3 973c e64e fbbc 869a 3abc 205a 973b
000002c0: 361b b93c 1a23 e93c 304a 66bb 26e9 aebc
000002d0: 0e7e d93c ee63 e53c 3812 e5bb 79de 083d
000002e0: e80c 2abd 9ecf d93c 1050 c2bc 54b7 0fbd
000002f0: ea74 8d3c 9ee7 22bd 1535 013d 003f eeba
00000300: 3889 8c3c 0078 c63b d079 133c a8b0 d8bc
00000310: 304f b6bc a82f d0bb 26af b83c 023c 1ebd
00000320: d676 febc d8b3 d3bc b667 7fbc 888d e1bc
00000330: 00a3 7eba 9435 403c 27f0 16bd dfc3 0a3d
00000340: c03b 093a 98ed bb3b bac9 ca3c 0677 b43c
00000350: 3252 de3c 60fd b53a 9851 83bc a654 8ebc
00000360: 4295 0dbd 094e 013d 1d5a 1d3d 34ae 763c
00000370: 009a 67bb b01b 07bc a893 10bd a101 223d
00000380: be30 11bd 70c6 18bd f7f3 1dbd 7509 063d
00000390: 802d 923b 506e 633b c06f dd3b cc7e 66bc
000003a0: f96f 0c3d e6f7 14bd c82e 8bbc 1635 f4bc
000003b0: 5847 84bc 09ae 213d 5c02 773c dc91 4a3c
000003c0: 2226 0dbd 6826 db3b 997b 063d 2075 863b
000003d0: 1c47 2c3c cae7 d23c 5026 013c b61c 4bbc
000003e0: 9cd3 703c 58f8 f7bb 800e 8eba 7e33 9ebc
000003f0: 6ba0 f4bc 2247 fd3c 1e5b 953c de41 c73c

fc1.bias f4 [120]
-0.033408202 -0.028230006 -0.020740418 0.014141005 -0.034735866 0.013513165 -0.021748716 -0.01994279
-0.019418636 -0.0011196353 0.015007095 0.033467308 0.039027393 0.048620522 -0.018081095 -0.020185672
-0.02067545 -0.006417726 0.007674369 0.038906753 -0.0006430642 -0.0025649983 0.015938772 -0.0009641807
0.0087509435 0.039556984 0.040943097 -0.016788494 -0.001360179 0.016967893 -0.01050873 -0.025417617
0.03919919 0.0355438 0.012226366 0.0075677466 -0.038208272 0.007415409 -0.020707812 0.029569613
0.039535444 -0.00847413 0.03752562 -0.03253358 -0.03301777 -0.015658164 -0.009954579 -0.024180913
0.016579693 -0.017365772 -0.026858808 0.009538472 0.01647509 0.0044202455 -0.041303616 -0.028036978
-0.012255506 0.005061213 0.014828411 0.014822805 0.01989816 -0.0035320527 0.0071853795 0.030677486
-0.015572397 0.033689316 -0.038392603 -0.0062377793 -0.018662913 0.029289661 -0.021021226 -0.01674157
0.017296107 0.036835995 0.022751782 -0.0101772165 0.041054066 -0.025474373 -0.010144849 0.000318266
-0.024910798 0.008287471 0.04471149 0.037800215 0.0381923 0.015062843 -0.0014680959 0.0107491715
-0.021665903 -0.034641672 -0.029412352 0.02485387 -0.018084854 0.03716203 0.03493303 -0.031204315
0.022380214 -0.01217833 0.013330352 -0.009925169 0.027352672 0.039166305 0.03807922 -0.0022003434
0.02391339 5.902936e-05 -0.007983282 -0.022288872 -0.005404064 -0.033288304 -0.010493406 -0.0055384976
-0.0022609544 0.022372995 0.008359828 0.009390646 -0.015357342 0.021520216 0.0048306277 -0.02230582
00000000: 0ad7 08bd 9d42 e7bc cfe7 a9bc adaf 673c
00000010: 3247 0ebd 5266 5d3c 5d2a b2bc 105f a3bc
00000020: d513 9fbc bac0 92ba 52e0 753c 0415 093d
00000030: 30db 1f3d 5026 473d ce1e 94bc 6c5c a5bc
00000040: 905f a9bc ca4b d2bb 4679 fb3b b05c 1f3d
00000050: 4f93 28ba 8819 28bb 0792 823c 12c1 7cba
00000060: 1e60 0f3c 8106 223d f3b3 273d 0688 89bc
00000070: 0948 b2ba 4000 8b3c cf2c 2cbc 9b38 d0bc
00000080: 548f 203d 6096 113d 1951 483c dcfa f73b
00000090: 4780 1cbd f6fc f23b 6ea3 a9bc f93b f23c
000000a0: ebef 213d 14d7 0abc 77b4 193d ee41 05bd
000000b0: a43d 07bd 8d45 80bc 8818 23bc 0d17 c6bc
000000c0: 23d2 873c aa42 8ebc 0107 dcbc 4047 1c3c
000000d0: c5f6 863c b5d7 903b fb2d 29bd cead e5bc
000000e0: 51cb 48bc 88d8 a53b ddf2 723c 5adb 723c
000000f0: 7701 a33c 037a 67bb 5573 eb3b 5a4f fb3c
00000100: 5e23 7fbc cffd 093d 9041 1dbd 4966 ccbb
00000110: f7e2 98bc dff0 ef3c b534 acbc 9e25 89bc
00000120: 91b0 8d3c 57e1 163d f261 ba3c 57be 26bc
00000130: 4f28 283d a2af d0bc 9536 26bc f0dc a639
00000140: bb11 ccbc 2cc8 073c 6523 373d 66d4 1a3d
00000150: 876f 1c3d 25ca 763c 206d c0ba 4b1d 303c
00000160: b17c b1bc 6de4 0dbd 2cf2 f0bc 589a cb3c
00000170: b026 94bc 3637 183d f015 0f3d 31a0 ffbc
00000180: b656 b73c 9e87 47bc 8c67 5a3c 2d9d 22bc
00000190: b612 e03c d96c 203d f5f8 1b3d a333 10bb
000001a0: 03e6 c33c 4b96 7738 50cc 02bc 2797 b6bc
000001b0: 9314 b1bb 5159 08bd 89ec 2bbc 497c b5bb
000001c0: 852c 14bb 9247 b73c a9f7 083c 39db 193c
000001d0: 5c9d 7bbc 2a4b b03c 3e4a 9e3b b2ba b6bc

fc2.weight f4 [84, 120]
0.08022222 0.09013719 0.07374463 0.035826586 0.00074989034 -0.04740279 -0.03727119 -0.060368612
-0.0055093886 -0.084231466 0.08272941 -0.016059583 0.07782595 -0.052385 -0.057099525 0.07799265
-0.05357286 0.03702025 -0.045352265 -0.060525395 0.009490705 -0.06123016 0.002487921 0.07467162
-0.0044627613 -0.045561995 0.00481037 -0.077268146 -0.051869873 0.04846797 0.06895791 -0.010670503
0.044053506 0.07390321 0.0691953 -0.04012159 -0.04247447 0.00530499 0.08597279 0.028379558
-0.062814005 0.02854254 0.003229998 0.059850566 0.07510481 -0.03945331 -0.08294277 0.018313942
0.049801372 -0.08424643 0.037921794 0.069532655 0.0009903385 -0.043444313 0.006452152 0.0020624492
-0.033884834 0.0035331072 0.07617505 0.013393475 -0.013744945 0.06093978 0.023163695 0.06861916
-0.022089768 -0.024544675 -0.016470889 -0.0702957 -0.006203444 0.023490705 0.040491465 0.040636566
-0.063010976 0.07167745 -0.078554414 0.06148334 0.016477501 0.025323026 0.021119826 0.08025834
0.04989122 -0.06037299 0.0711509 0.07308427 -0.030660069 -0.05559544 -0.06327437 0.03216678
0.033693925 0.083205074 -0.02759368 -0.058385417 -0.06406537 0.04469435 0.028750684 0.018763466
0.028866574 -0.006127469 -0.090935655 0.0007063378 0.066428505 -0.0687358 0.08306156 0.05987925
0.05597105 0.014162421 -0.08871035 0.037661552 0.008352399 -0.030409317 0.0005273447 -0.054284707
-0.06808733 0.07939641 -0.03207675 -0.06284501 0.06823987 -0.01817809 -0.053727183 0.04525316
0.049240634 0.029331472 0.08161491 -0.08837904 0.0033199969 -0.048000377 0.009809365 0.07611724
0.09051556 -0.007661743 -0.016665887 -0.025429945 -0.0042034346 0.03476774 0.089765646 0.007635146
-0.047387455 0.029080944 0.044681933 -0.087425865 -0.055449694 -0.048478555 0.077404 0.07393284
0.08842361 -0.044088762 0.032031402 -0.056731418 -0.005674796 -0.006659676 0.06915001 0.034175884
-0.074003756 -0.043699175 0.014647609 0.08006368 -0.057969883 0.046979524 0.08540676 0.087539844
-0.059028156 -0.024443394 0.05482106 0.041137062 -0.08842126 0.020944009 -0.07841515 -0.04480806
0.049037524 -0.08789736 0.040539674 -0.03974568 0.073863894 0.027556552 0.004168517 0.0009355868
-0.062611826 0.049224306 -0.034542006 -0.06734695 -0.06488024 0.017683744 -0.059512805 0.07035654
-0.06426628 0.06532438 0.018723028 -0.07548394 0.03365887 0.06283677 0.0070916303 0.050590053
0.07954218 0.036370903 -0.0031707138 -0.042689133 -0.046300266 -0.083083086 -0.026024634 0.0015948506
-0.06544386 -0.0032909964 0.015045587 0.009366372 0.047931165 -0.0021537154 0.049808133 0.049507592
-0.083747916 0.07277243 -0.04434485 -0.022186527 0.062011205 0.058375828 0.0017474055 -0.018310841
-0.062459156 0.04708858 -0.08684467 -0.033429634 0.06746915 -0.028701158 -0.042448834 -0.056912296
0.08428453 -0.0035579635 -0.08745219 0.042096585 -0.05057558 -0.06934089 -0.027168574 -0.06077615
-0.015225485 0.06043706 0.058192357 -0.015326292 -0.011197487 0.07032427 -0.06129526 -0.005656101
-0.002433546 0.065230794 -0.023615802 0.022991784 -0.0073062195 -0.07944923 0.055419516 0.091069475
0.07465398 0.089147314 -0.036882307 0.010397698 0.044245508 0.07727146 0.08220282 0.06698596
00000000: 8c4b a43d d999 b83d 6d07 973d e6be 123d
00000010: 4a94 443a 6e29 42bd ada9 18bd 1445 77bd
00000020: 1a88 b4bb 8c81 acbd 096e a93d 638f 83bc
00000030: 3663 9f3d a791 56bd 31e1 69bd 9cba 9f3d
00000040: 376f 5bbd 8ca2 173d 4cc3 39bd 7ae9 77bd
00000050: e77e 1b3c 7acc 7abd 630c 233b 6fed 983d
00000060: 5b3c 92bb 379f 3abd 4fa0 9d3b c33e 9ebd
00000070: 8175 54bd 5a86 463d ce39 8d3d 55d3 2ebc
00000080: 7371 343d 915a 973d 44b6 8d3d 8956 24bd
00000090: b6f9 2dbd 7bd5 ad3b 8112 b03d 3f7c e83c
000000a0: a1a4 80bd 0bd2 e93c 60ae 533b de25 753d
000000b0: 8dd0 993d cb99 21bd e6dd a9bd 1f07 963c
000000c0: 86fc 4b3d 6489 acbd e253 1b3d 2367 8e3d
000000d0: 3fce 813a aaf2 31bd 936c d33b 282a 073b
000000e0: d3ca 0abd b48b 673b aa01 9c3d 4e70 5b3c
000000f0: 7a32 61bc fe9b 793d cac1 bd3c 3488 8c3d
00000100: 9af5 b4bc ea11 c9bc f5ed 86bc 31f7 8fbd
00000110: 4346 cbbb 946f c03c 61da 253d 8772 263d
00000120: e60b 81bd a0cb 923d 23e1 a0bd f4d5 7b3d
00000130: d3fb 863c 3c72 cf3c 7c03 ad3c 7c5e a43d
00000140: bc5a 4c3d ab49 77bd 90b7 913d 35ad 953d
00000150: d32a fbbc 0bb8 63bd fe95 81bd 50c1 033d
00000160: a402 0a3d 6c67 aa3d 240c e2bc 8c25 6fbd
00000170: b434 83bd 6c11 373d 8e86 eb3c d7b5 993c
00000180: 9879 ec3c efc8 c8bb 793c babd 8729 393a
00000190: ab0b 883d 5bc5 8cbd 2e1c aa3d f243 753d
000001a0: e641 653d 8009 683c c6ad b5bd 0043 1a3d
000001b0: 80d8 083c f61c f9bc 813d 0a3a a459 5ebd
000001c0: 5f71 8bbd 969a a23d e962 03bd e2b4 80bd
000001d0: 58c1 8b3d 38ea 94bc 0911 5cbd 615b 393d
000001e0: 8cb0 493d 8e48 f03c b825 a73d 1200 b5bd
000001f0: 4e94 593b 0b9c 44bd 75b7 203c 5be3 9b3d
00000200: 3960 b93d 5c0f fbbb e686 88bc 7652 d0bc
00000210: f7bc 89bb 9e68 0e3d 0dd7 b73d 3f30 fa3b
00000220: 5919 42bd 293b ee3c 6704 373d 550c b3bd
00000230: 381f 63bd 7391 46bd fd85 9e3d 1a6a 973d
00000240: 7017 b53d 6b96 34bd 5c33 033d 345f 68bd
00000250: a4f3 b9bb 6939 dabb 859e 8d3d 03fc 0b3d
00000260: 488f 97bd e8fd 32bd 86fc 6f3c 6df8 a33d
00000270: d471 6dbd 9a6d 403d bde9 ae3d 1748 b33d
00000280: 82c7 71bd 833d c8bc 0c8c 603d 567f 283d
00000290: 3516 b5bd c592 ab3c 1f98 a0bd a888 37bd
000002a0: 92db 483d 8803 b4bd ee0c 263d 5ecc 22bd
000002b0: f445 973d 47be e13c 0e98 883b 2b42 753a
000002c0: a13a 80bd 6d9f 493d eb7b 0dbd 33ed 89bd
000002d0: eedf 84bd 80dd 903c b3c3 73bd 1717 903d
000002e0: 0a9e 83bd cac8 853d 0961 993c 5397 9abd
000002f0: e2dd 093d 91b0 803d e860 e83b 8437 4f3d
00000300: 03e7 a23d a8f9 143d c0cb 4fbb cdda 2ebd
00000310: 59a5 3dbd 7727 aabd 9d31 d5bc 4e0a d13a
00000320: 6e07 86bd c2ad 57bb c481 763c 6975 193c
00000330: 7853 443d 5925 0dbb 9d03 4c3d 79c8 4a3d
00000340: 0784 abbd b609 953d f2a2 35bd 85c0 b5bc
00000350: 76ff 7d3d 7e1b 6f3d 3309 e53a 9e00 96bc
00000360: 2cd5 7fbd f4df 403d 9edb b1bd 83ed 08bd
00000370: 442d 8a3d b11e ebbc d4de 2dbd de1c 69bd
00000380: 5e9d ac3d b92c 69bb 221a b3bd 786d 2c3d
00000390: 5728 4fbd 9902 8ebd a190 debc 6af0 78bd
000003a0: 5074 79bc da8c 773d 1c5b 6e3d 211b 7bbc
000003b0: aa75 37bc 2c06 903d bd10 7bbd d056 b9bb
000003c0: 207c 1fbb b997 853d ed75 c1bc 4459 bc3c
000003d0: 0369 efbb 47b6 a2bd 93ff 623d a282 ba3d
000003e0: 30e4 983d de92 b63d e711 17bd 1b5b 2a3c
000003f0: c73a 353d 8040 9e3d f459 a83d ef2f 893d

fc2.bias f4 [84]
0.059670962 0.069880866 -0.013672863 0.00026666635 0.003160548 0.039662935 0.025351783 0.042959884
-0.007298753 -0.033596653 -0.061578445 0.08537905 0.023848817 0.042379294 0.046990182 -0.05229371
-0.054490503 -0.007780903 -0.01725277 0.01568342 0.03500175 0.034572132 -0.054267563 0.021297824
-0.020856839 0.066413514 0.027087342 0.002609944 -0.09114907 -0.07198679 0.0022309448 -0.025782946
0.0888869 0.04450345 -0.038273513 0.0120434845 -0.064341016 -0.068359904 0.07482137 0.045187466
-0.059737977 0.012031242 -0.017490158 0.030975988 -0.01936821 -0.010081339 -0.0048216376 0.009804481
-0.022037353 0.009079699 -0.021805763 -0.01383219 -0.008797538 -0.07593122 -0.030991353 0.051629443
-0.026199387 0.060483705 -0.021054905 -0.024490193 -0.01678709 -0.085846364 0.023287721 -0.06301999
0.080333255 -0.02398353 -0.027246423 0.09435618 -0.028704777 -0.05710618 -0.02579586 0.0746633
0.009120733 0.10352593 -0.06662554 -0.012604431 -0.020805605 -0.044546247 0.028467378 -0.030454924
0.025574153 -0.06431982 0.077685505 -0.037047237
00000000: 8a69 743d b31d 8f3d 2504 60bc 5acf 8b39
00000010: 3221 4f3b 9a75 223d 8bae cf3c b4f6 2f3d
00000020: 612a efbb a59c 09bd ae39 7cbd 36db ae3d
00000030: 985e c33c e995 2d3d c778 403d ee31 56bd
00000040: 6f31 5fbd f2f6 febb ae55 8dbc 847a 803c
00000050: ff5d 0f3d 829b 0d3d aa47 5ebd c678 ae3c
00000060: f6db aabc cf03 883d 46e6 dd3c 980b 2b3b
00000070: 5dac babd cf6d 93bd 0b35 123b c236 d3bc
00000080: 560a b63d 4049 363d b0c4 1cbd 0952 453c
00000090: 39c5 83bd 4700 8cbd f23b 993d 7e16 393d
000000a0: cfaf 74bd b01e 453c 8547 8fbc 5bc1 fd3c
000000b0: 15aa 9ebc 332c 25bc d4fe 9dbb f9a2 203c
000000c0: ae87 b4bc 05c3 143c 00a2 b2bc 69a0 62bc
000000d0: 8c23 10bc d481 9bbd 94e1 fdbc 6579 533d
000000e0: 19a0 d6bc c3bd 773d 567b acbc a89f c8bc
000000f0: 1485 89bc 38d0 afbd e4c5 be3c a010 81bd
00000100: c385 a43d 1c79 c4bc e433 dfbc d03d c13d
00000110: 4826 ebbc 2be8 69bd d751 d3bc 12e9 983d
00000120: 206f 153c 6705 d43d f972 88bd d182 4ebc
00000130: 8470 aabc 2076 36bd 6b34 e93c 9b7c f9bc
00000140: e380 d13c 1cba 83bd 9419 9f3d d8be 17bd

fc3.weight f4 [10, 84]
0.0550998 -0.052044217 -0.060568698 -0.017231379 0.006802765 -0.01094978 0.022144498 0.059520807
-0.09147959 0.103452496 -0.053948715 -0.08527395 -0.08098123 0.092249684 0.0816498 0.08197711
-0.03116358 -0.08382568 0.0061488044 0.011019945 0.06119384 -0.09661037 -0.0063253217 -0.057447832
0.061933845 0.01177483 0.030023867 0.057228107 -0.05968866 0.025217172 -0.06360336 -0.080293424
-0.10384432 0.02434295 0.00471571 0.048699465 -0.0035005212 -0.106307924 -0.09613186 0.04731092
0.01542772 -0.063825324 0.039576236 0.0032762575 -0.083645456 0.03811045 0.062930435 0.07917683
0.0031937351 -0.023109095 0.07490698 -0.03240159 -0.08392605 0.082097225 -0.077611476 -0.0622186
-0.03821857 -0.09235789 0.056262553 0.020993166 0.05133982 0.09601836 0.0556648 -0.028853972
-0.09298912 -0.0891235 0.00033303763 -0.07360299 0.10829479 -0.021007543 0.07369732 -0.056765683
-0.011361788 0.021034917 0.08617007 -0.07271927 0.108047046 -0.09518673 -0.02826649 0.009701617
-0.092995726 0.0011268217 0.049583644 -0.055638384 0.022558227 0.11812569 0.11415255 -0.06452791
0.047748577 -0.068230085 -0.035591707 0.04143314 0.057050403 -0.04309951 -0.011138516 -0.061073467
0.026491806 -0.10467898 -0.05314443 0.0907873 0.060344525 -0.032837145 -0.07511235 0.032633536
-0.040737975 -0.09211687 -0.026512291 -0.03108696 -0.10616053 0.031157743 -0.09044924 -0.00859801
0.0013409108 -0.0063380096 -0.04209896 0.014790462 0.1189022 0.019228918 0.076901525 0.011240126
0.052401282 -0.08516529 -0.003208715 -0.062455397 -0.09718464 0.02973554 -0.06814185 -0.026455952
-0.079464816 0.013764508 -0.027751734 -0.09768224 -0.083914176 -0.056739848 -0.07026848 -0.005825079
-0.073842004 -0.10269241 -0.009329453 0.07541507 -0.10324129 -0.09356932 0.10061606 -0.0044344496
0.060785152 0.070961654 0.09382997 0.045301832 0.056896456 0.013545647 0.04426089 -0.0008280594
-0.00041648943 0.0010944601 -0.092265084 -0.068586186 -0.08941286 0.09616846 -0.06021481 -0.09261934
0.051713094 -0.09420549 -0.09741495 0.063995875 -0.0056121293 0.05321324 0.12110691 -0.09281881
0.084668994 -0.09226608 0.021259988 -0.08905933 0.034005146 -0.0984462 -0.029722506 -0.08326213
-0.0525632 0.06560335 0.04662037 0.09785591 0.0695815 -0.020539014 0.043573547 0.060239643
-0.020218395 -0.035075784 0.04029724 -0.06168747 0.0035082973 -0.06022314 -0.08533861 -0.06956513
0.058885355 -0.0719727 -0.083469756 0.018897802 0.105003186 -0.010621852 -0.06312087 -0.10068647
-0.005838215 0.06546588 -0.0052712155 -0.087068655 -0.019793004 0.0883022 0.06702924 -0.039038397
0.09047475 -0.020049836 -0.021070587 -0.0716137 0.023249777 -0.04824703 -0.009408602 -0.020999925
0.034622766 0.08888457 0.088897035 0.06709682 -0.010121768 -0.08068091 0.055178918 0.07564352
0.061006423 0.06396064 -0.04373965 -0.047023863 0.0063585183 -0.05183524 -0.09890472 -0.08905655
0.038938973 -0.05251082 0.056665663 -0.06986122 -0.1038219 -0.109053954 -0.07343741 0.051755566
-0.0026515757 0.08513321 -0.068488955 0.09583548 -0.03870762 -0.08867006 0.07250313 0.10653309
0.06870064 0.10490732 0.07662662 0.08132679 -0.08006056 0.09602455 -0.005755723 -0.04789698
00000000: 54b0 613d 512c 55bd e216 78bd d228 8dbc
00000010: bbe9 de3b b566 33bc 6168 b53c 17cc 733d
00000020: a759 bbbd e7de d33d 54f9 5cbd 1ca4 aebd
00000030: 7dd9 a5bd 67ed bc3d 0338 a73d 9de3 a73d
00000040: c44a ffbc ccac abbd e97b c93b 008d 343c
00000050: 64a6 7a3d a8db c5bd a544 cfbb 6b4e 6bbd
00000060: 58ae 7d3d 37eb 403c 9df4 f53c 0568 6a3d
00000070: 197c 74bd 3e94 ce3c 7a42 82bd e170 a4bd
00000080: 55ac d4bd de6a c73c 3e86 9a3b 1779 473d
00000090: 0069 65bb f8b7 d9bd c8e0 c4bd 18c9 413d
000000a0: 8cc4 7c3c dab6 82bd b11a 223d 7bb6 563b
000000b0: 4f4e abbd b419 1c3d ace1 803d 7627 a23d
000000c0: fc4d 513b 494f bdbc d568 993d 88b7 04bd
000000d0: 6ce1 abbd 9722 a83d c4f2 9ebd eed8 7ebd
000000e0: 138b 1cbd 2226 bdbd 9073 663d dcf9 ab3c
000000f0: b449 523d 46a5 c43d c600 643d 2a5f ecbc
00000100: 1471 bebd 6286 b6bd 8e9b ae39 2abd 96bd
00000110: a9c9 dd3d 0318 acbc 9fee 963d 2283 68bd
00000120: cb26 3abc 6b51 ac3c ef79 b03d d7ed 94bd
00000130: c547 dd3d 43f1 c2bd 208f e7bc 88f3 1e3c
00000140: 8b74 bebd ddb1 933a 3818 4b3d 13e5 63bd
00000150: 08cc b83c e2eb f13d d0c8 e93d 3527 84bd
00000160: 0394 433d 37bc 8bbd 9cc8 11bd ccb5 293d
00000170: afad 693d 1d89 30bd 527e 36bc 2c28 7abd
00000180: 5805 d93c ef61 d6bd f9ad 59bd b1ee b93d
00000190: d22b 773d 3e80 06bd 81d4 99bd beaa 053d
000001a0: dddc 26bd c5a7 bcbd 4e30 d9bc 15aa febc
000001b0: b16a d9bd 863e ff3c 733d b9bd abde 0cbc
000001c0: 80c1 af3a 14af cfbb f66f 2cbd b253 723c
000001d0: ff82 f33d f785 9d3c 8c7e 9d3d 8128 383c
000001e0: baa2 563d 246b aebd 4e49 52bb 3bd1 7fbd
000001f0: be08 c7bd f297 f33c f48d 8bbd 27ba d8bc
00000200: 73be a2bd 8884 613c 9b57 e3bc a00d c8bd
00000210: 32db abbd 0b68 68bd ece8 8fbd 4ee0 bebb
00000220: 7a3a 97bd 6650 d2bd 90da 18bc 3773 9a3d
00000230: 2b70 d3bd 46a1 bfbd cb0f ce3d dc4e 91bb
00000240: daf9 783d 5854 913d ed29 c03d 6a8e 393d
00000250: 420c 693d 90ee 5d3c e84a 353d 2012 59ba
00000260: 445c dab9 fd73 8f3a 7af5 bcbd ea76 8cbd
00000270: 171e b7bd f8f3 c43d cea3 76bd 35af bdbd
00000280: 1cd1 533d cfee c0bd 7d81 c7bd 4510 833d
00000290: f4e5 b7bb 20f6 593d e606 f83d ca17 bebd
000002a0: f066 ad3d 00f6 bcbd 6d29 ae3c bd64 b6bd
000002b0: fb48 0b3d 299e c9bd 9d7c f3bc 5685 aabd
000002c0: 834c 57bd 0d5b 863d 00f5 3e3d ae68 c83d
000002d0: bf80 8e3d 6f41 a8bc 2d7a 323d d8bd 763d
000002e0: 0ca1 a5bc a0ab 0fbd b80e 253d 00ac 7cbd
000002f0: 76eb 653b 8aac 76bd 02c6 aebd 2a78 8ebd
00000300: c531 713d 6c66 93bd 31f2 aabd 90cf 9a3c
00000310: e90b d73d 4707 2ebc 8445 81bd b534 cebd
00000320: 7f4e bfbb fa12 863d 29ba acbb 0d51 b2bd
00000330: f024 a2bc c9d7 b43d a046 893d bae6 1fbd
00000340: d34a b93d 8e3f a4bc 399c acbc 34aa 92bd
00000350: 5176 be3c ad9e 45bd 8926 1abc 0908 acbc
00000360: 9ad0 0d3d 1d09 b63d a60f b63d 0f6a 893d
00000370: c6d5 25bc 083c a5bd 4a03 623d fdea 9a3d
00000380: dfe1 793d ccfd 823d 5928 33bd 189c 40bd
00000390: 1e5b d03b 3051 54bd 8f8e cabd 4863 b6bd
000003a0: 797e 1f3d 9615 57bd 411a 683d 6613 8fbd
000003b0: 94a0 d4bd ae57 dfbd 5a66 96bd a5fd 533d
000003c0: 0fc6 2dbb 525a ae3d f043 8cbd 6445 c43d
000003d0: e28b 1ebd a698 b5bd 857c 943d 052e da3d
000003e0: ecb2 8c3d a6d9 d63d 6bee 9c3d a98e a63d
000003f0: caf6 a3bd 85a8 c43d 819a bcbb a02f 44bd

fc3.bias f4 [10]
-0.10295087 0.22439861 0.13735011 -0.020530965 0.029395953 0.012476828 -0.07145984 -0.04901602
-0.015233236 -0.051598825
00000000: e8d7 d2bd c0c8 653e 82a5 0c3e 8e30 a8bc
00000010: c8cf f03c 9c6b 4c3c 8959 92bd 06c5 48bd
00000020: d394 79bc 4a59 53bd
