cvdash/tasks/EtE_localization/net.pth (torch_old, 329436 bytes, 10 tensors)

conv1.weight f4 [6, 3, 3, 3]
000000 1e 84 af bd d2 81 88 3d 53 f3 b5 bc 44 bb 86 bc
       -0.08570121 0.06665386 -0.022210753 -0.016446717
000010 91 3e b4 3d 50 a7 3d 3d 29 6c 42 bd ca 63 06 3e
       0.08800996 0.04630214 -0.04746643 0.13124004
000020 9d 67 a1 3c 5a 8a 63 bc e0 a7 f3 3c 79 de 2d be
       0.019702727 -0.013887966 0.029743135 -0.16979398
000030 90 0b ae bd 9b 1f 46 3d 06 18 b8 3d b1 8e 8a 3d
       -0.08498299 0.048369985 0.08988957 0.067654975
000040 a4 59 3d be 26 41 f7 bd 47 63 6f 3d 64 f9 a1 3d
       -0.18491226 -0.12072973 0.058444288 0.079088956
000050 04 50 11 3e da 28 5a bd 5d c1 40 be f5 51 0e 3d
       0.1419068 -0.053261615 -0.18823762 0.03474613
000060 9c 3d 85 3d 20 58 2b 3e c0 35 29 be 9a 5c 4f bc
       0.06505892 0.16732836 -0.1652441 -0.012656355
000070 20 dc 2e 3e 52 17 3d 3e 87 9a 5f 3e 41 84 54 3b
       0.17076159 0.18465927 0.21836291 0.0032427462
000080 68 28 64 bd 57 7c 01 3e 28 43 a1 bc 18 3d d0 3d
       -0.055702597 0.12645088 -0.019685343 0.10167903
000090 a6 d5 62 3e 72 7c 72 bc f4 5c 4b 3e 5f 47 1d 3e
       0.22151813 -0.014800178 0.19859678 0.15359257
0000a0 5b ae 3c 3e e5 7b e6 bd 82 ea da bd 61 a6 93 3e
       0.18425886 -0.112541 -0.1068926 0.28837875
0000b0 1f b7 95 3d 08 f3 59 bd a0 f5 e3 3d 0f 9c 1f 3e
       0.07310318 -0.05321029 0.111308336 0.15586875
0000c0 ec 8b df 3d de 39 30 bc 78 c1 25 3d 4a d0 58 3c
       0.1091536 -0.010755984 0.04046771 0.013233254
0000d0 3a 07 ed 3d 31 31 64 bd 43 dc 49 3f a4 49 32 3f
       0.11573644 -0.055710975 0.7885172 0.69643617
0000e0 9f 48 f2 3e 1b 09 d8 bd 31 2f 85 3b a4 6e 22 bd
       0.4732103 -0.10548612 0.0040644635 -0.039656296
0000f0 8b b1 0f bf 6e e5 30 bf 0a dc 1a bf 84 95 2c 3f
       -0.56130284 -0.6910008 -0.60492 0.6741564
000100 18 29 53 3f db 1a 06 3f 46 dc 15 be 1e 16 c9 bc
       0.8248458 0.5238473 -0.14634809 -0.02454668
000110 96 6c a1 be 18 39 ff be bc d3 44 bf f4 29 2f bf
       -0.31528157 -0.49848247 -0.7688558 -0.6842339
000120 57 bc 13 3f 36 5e 0b 3f 26 a1 d3 3e 54 8e 92 3e
       0.5770926 0.5444063 0.41333884 0.28624213
000130 7c a4 03 bd e2 bd 74 be de 89 01 bf 87 8b 0f bf
       -0.032139286 -0.2390056 -0.50600994 -0.56072277
000140 70 4c 09 bf 7c f5 07 be a2 06 66 3d 86 93 0b be
       -0.5363226 -0.13277239 0.05615867 -0.13630494
000150 7d 3c 87 bd fd 43 73 3d ec d4 1e bd 45 aa 52 3b
       -0.06603334 0.05939101 -0.038777277 0.0032144946
000160 84 ce a5 bd aa b4 6f 3c b6 83 11 3e cd 2f d7 3d
       -0.0809603 0.014630476 0.142104 0.10507164
000170 bf 5e 00 3e ad 96 ec 3c 8a cd 36 be 24 e9 cb bd
       0.12536143 0.028880442 -0.17851844 -0.099565774
000180 f0 95 2a 3e a4 7c 4a bd 8c a8 d1 3d 9d 2b 6e 3d
       0.16658759 -0.049435273 0.10237226 0.05814706
000190 cc c7 a4 bd 34 17 50 bd 28 f8 2b be 6c 6b 27 3e
       -0.08045921 -0.05080338 -0.16793883 0.16349572
0001a0 31 d7 99 3c f1 80 95 bc 99 f8 8f bd d7 1e 04 3e
       0.01877937 -0.01824996 -0.07029838 0.1290239
0001b0 39 60 63 3e 7d a0 d3 be 5f 91 11 be 46 ef 89 3b
       0.22204675 -0.4133338 -0.14215611 0.004209432
0001c0 a4 a8 c0 be d4 4c 10 bf 9a 0d 1a 3f 2e cf 98 3d
       -0.37628663 -0.5636723 0.60177004 0.074613914
0001d0 b9 2c f6 3d c9 6f 52 3e b5 d3 01 bf af a7 90 be
       0.12020249 0.20550455 -0.50713664 -0.28252932
0001e0 18 27 2f 3e b1 29 28 bf a2 59 06 bf ac ae 25 3f
       0.17104757 -0.65688616 -0.5248052 0.64719653
0001f0 73 9d 4c 3d 0e 94 d4 bc f2 fa b4 3e e5 34 82 be
       0.049954843 -0.025949504 0.35347706 -0.2543098
000200 92 02 88 bc 18 da 05 3e 2f 8b a8 be e4 ae c4 be
       -0.016602788 0.13071477 -0.3291869 -0.3841468
000210 fa b6 36 3f 98 7d a0 3e 1a 86 32 3e 6e 11 f0 bb
       0.7137295 0.3134582 0.17433968 -0.0073262965
000220 02 d8 0c 3e 20 9e 0d 3e a9 f4 41 3e 79 7e 09 be
       0.13754275 0.13829851 0.18940987 -0.13427152
000230 c7 2f 87 bd d5 98 b8 bd 33 13 9b bc e9 cf 81 3d
       -0.0660091 -0.090135254 -0.018930053 0.06338484
000240 97 1e 55 bd 2e 46 0c 3e 81 10 31 3b 11 e5 1c be
       -0.052031126 0.13698646 0.0027017894 -0.15321757
000250 b5 55 59 3e 18 6d c4 bd 9b b5 2d 3e 15 13 13 bd
       0.21224101 -0.095911205 0.16963808 -0.03590687
000260 ec 08 49 3e f1 f4 e6 bd e2 de 3b 3d 62 18 8e bd
       0.1963231 -0.112771876 0.045866854 -0.069382444
000270 7a 35 23 3d 08 b2 b9 bc a9 b6 a5 3d 40 22 43 3e
       0.03984592 -0.0226679 0.0809148 0.19056034
000280 82 f7 5e 3e 1e e9 38 3d
       0.21774104 0.045144193

conv1.bias f4 [6]
000000 ca 7f 0e be 79 e2 f4 be 38 e6 2c 3e 5a 12 28 be
       -0.13915935 -0.47829035 0.16884696 -0.1641325
000010 d5 9f 1b 3f 75 b5 c7 be
       0.6079076 -0.39005628

conv2.weight f4 [16, 6, 4, 4]
000000 71 ff b4 3d 04 af 32 3d 06 95 67 3d 4d 1a 84 3d
       0.08837784 0.04362394 0.056538604 0.06450329
000010 c3 2c 22 3d 84 31 1a 3d 3e 03 39 3d 2d b2 2a 3d
       0.03959347 0.037644878 0.045169108 0.041673828
000020 1d 1c 64 bd 7c 00 f1 bc 27 94 76 bc 48 89 87 3d
       -0.055690873 -0.029419176 -0.015049971 0.06617981
000030 bb 1c bb bd bc 4a 39 bd 50 a7 e1 bb db f7 57 bd
       -0.09136339 -0.045237288 -0.0068864003 -0.052726608
000040 0b 9f c5 bd 5f 08 c8 3d 17 17 e6 3d ce ff 0c 3e
       -0.09649476 0.09767222 0.11234873 0.13769457
000050 85 26 09 3a 70 20 b0 bc a1 e2 9d 3d d0 72 1f bd
       0.0005231875 -0.021499842 0.07709242 -0.038927853
000060 73 90 2b be a6 72 f2 bc 2a 92 9d bd 8d 18 40 3d
       -0.16754322 -0.029595684 -0.07693894 0.046898413
000070 e9 7e 03 bd 3a 0a bb 3b bb 3e e4 bd 59 3b db bd
       -0.032103453 0.005708006 -0.111447774 -0.10704679
000080 8e 13 65 bc 86 fc 61 3b 18 49 2f 3d ac bc 98 3d
       -0.013981713 0.003448279 0.042794317 0.07457861
000090 ab db 4f 3e fb 6d 21 3e 98 0c 7e 3e d5 1c b5 3d
       0.2029864 0.1576461 0.24809492 0.0884339
0000a0 ac db 0e 3e 13 78 2e 3e a4 45 86 3d de 5c 60 be
       0.13950986 0.17037992 0.06556252 -0.21910426
0000b0 4f c1 34 be cd ba 6d be cd b8 64 be c3 ef 85 bd
       -0.17651866 -0.2321579 -0.22336121 -0.065398715
0000c0 86 0c ba bd 64 c2 32 bc 75 fc a5 bd f0 88 24 bd
       -0.0908442 -0.010910604 -0.08104793 -0.040169656
0000d0 f7 c2 d0 3b 99 bb 66 3c f3 a9 cd 3c 86 26 bb bd
       0.006370898 0.014082813 0.025105452 -0.09138207
0000e0 2c d1 4e bd d9 bd 26 bd f8 1d 3a bd 15 95 51 bc
       -0.05049245 -0.040708397 -0.045438737 -0.012791892
0000f0 97 8f 85 bd 43 6c be 3d 4c d9 8c 3d ba 5f c1 3d
       -0.06521528 0.09297993 0.068773836 0.094420865
000100 f5 30 f4 be 62 99 14 bf 93 16 ed be 6c 4c de be
       -0.476936 -0.58046544 -0.46306285 -0.4341768
000110 e8 a1 6f be 45 34 22 be f4 b5 21 be 54 bd 24 be
       -0.23401606 -0.15840252 -0.15792066 -0.16087848
000120 fc cc b3 3e 45 4e c1 3e 74 88 4c 3e 38 98 41 3e
       0.35117328 0.37755027 0.19973928 0.18905723
000130 46 a4 86 3e 67 17 4f 3e 54 1f 69 3e 78 4e 46 3e
       0.26297206 0.20223771 0.22765857 0.19365871
000140 fd c6 4e 3d 28 fd fb 3d 08 46 97 3c a9 3d 25 b9
       0.05048274 0.12304145 0.01846601 -0.00015758596
000150 a0 44 42 bd 9a 68 e7 bd d0 24 25 3d 08 31 51 3d
       -0.047428727 -0.11299248 0.04031831 0.05107215
000160 77 77 ba bd 36 57 43 bd 19 f0 e3 bd e8 96 81 3d
       -0.09104817 -0.047690593 -0.11129779 0.06327611
000170 9a 30 9a bd 85 16 d1 bd 80 39 ae bd 15 19 71 bd
       -0.07528801 -0.102093734 -0.08507061 -0.05886181
000180 b6 7a b4 bc 1f 8c 01 3d 3b 3a a9 bd 21 63 06 3d
       -0.02203117 0.03162777 -0.0826306 0.03280938
000190 b6 4c f8 bb 45 94 72 bd 5c e7 97 3c 1c 9b 9f bd
       -0.007577504 -0.059223432 0.018542938 -0.07793257
0001a0 ee fa c0 bd d1 c5 7f bb f3 d4 c0 3d e8 a5 b9 bc
       -0.09422861 -0.003902782 0.09415617 -0.022662118
0001b0 b3 ff bb 3d f4 06 ed bc 53 f0 68 bd 94 07 87 ba
       0.0917963 -0.02893398 -0.056869816 -0.0010301941
0001c0 7e 7b f1 bd 4a 6c 19 3e 2f fb 1f 3e bd 0f de bd
       -0.117911324 0.14982715 0.15623163 -0.108428456
0001d0 59 c6 3b 3d 76 ba cf 3b 36 da 3d 39 1f 8f 2a be
       0.045843456 0.0063393665 0.00018105734 -0.16656159
0001e0 f3 3d c0 bc 46 0e 0e 3d 01 5a 18 be 1b 4b cd 3c
       -0.02346704 0.03468158 -0.14878084 0.025060227
0001f0 ce 4d 8e 3d b3 ef 9a bd 6b 7d 2e be 56 9a 0d bd
       0.06948434 -0.0756525 -0.1704003 -0.034571014
000200 01 90 96 be 8f 50 82 be 61 9c f0 3d b6 9b 25 3e
       -0.2940674 -0.25452086 0.11748577 0.1617268
000210 43 59 8b be 24 b6 73 be b7 46 4d 3e e7 40 1d be
       -0.2721654 -0.2379995 0.20046507 -0.1535679
000220 87 e1 93 be fc 31 8a 3d ee 4c 5d 3e 49 17 f4 bd
       -0.28883 0.06747815 0.21611378 -0.11918504
000230 e9 7b 01 be a3 bb 86 3e 75 20 af 3d 44 7f 5c bd
       -0.12644924 0.2631503 0.085511126 -0.053832307
000240 84 bd a9 bc 9e d9 07 bd 05 53 cf bd d3 cb c2 3c
       -0.02072025 -0.03316652 -0.101232566 0.023778832
000250 d7 62 99 3d bb 1b 9e 3d 43 64 cc 3d ea 14 c9 3d
       0.07489555 0.07720133 0.09980061 0.09818442
000260 3c 04 32 bd 29 c1 03 bd 46 b7 82 3d 5c 62 97 bd
       -0.04346107 -0.032166634 0.06382613 -0.073918074
000270 2a 67 34 3d c9 cf a0 3d d5 7a 09 3d a7 54 45 bd
       0.044043697 0.07852132 0.033564407 -0.048176434
000280 e1 40 35 be 83 54 43 bf 6e f0 3a be 82 f1 31 3e
       -0.1770053 -0.7630083 -0.18255779 0.17377284
000290 a4 fb 6b be d9 2a f9 be 01 32 a5 3e 2d fd 1d 3e
       -0.23045212 -0.48665503 0.32264712 0.1542861
0002a0 28 44 ee be f5 fd 87 3d c9 87 d2 3e e8 2a 2e 3c
       -0.46536374 0.06640235 0.4111922 0.010630347
0002b0 3f 10 a3 bd 62 35 0c 3f 72 07 2f 3f c0 a9 a8 3d
       -0.07962083 0.54768956 0.68370736 0.08235502
0002c0 7e 63 b6 bb 7b 26 12 3d 82 f4 fc 3d d2 59 ad 3b
       -0.0055660596 0.03568123 0.12351324 0.0052902484
0002d0 34 d8 55 bd 9e 70 15 3e 53 8e 16 bd 64 4f b3 bd
       -0.05220814 0.14593741 -0.036756825 -0.08755377
0002e0 15 8e 9b 3c 08 96 d2 3d fc 01 a6 bd 54 62 d4 bd
       0.018988648 0.102825224 -0.08105847 -0.10370317
0002f0 30 87 c1 3d b0 69 52 bd b2 ff 2e bd c4 01 89 bd
       0.09449613 -0.051370323 -0.04272432 -0.0668979
000300 52 e7 ee 3c bc 8b dc bc a3 b6 95 bd 03 4a 34 ba
       0.029163036 -0.0269221 -0.07310226 -0.00068774837
000310 dc 76 10 bd 0c 40 d3 3c bd 99 53 3d e4 8d a0 bd
       -0.035269603 0.025787376 0.051660288 -0.078395635
000320 f3 e7 84 3d b3 dc b5 bd c5 f3 c5 3d 0b fd 80 3c
       0.06489553 -0.08879986 0.09665636 0.01574566
000330 98 d1 42 bd 92 ca 44 bc 4a 53 b1 3d f6 aa a1 bd
       -0.047563165 -0.012011187 0.08658464 -0.07893936
000340 84 35 05 bc 9b cc 26 bd 46 c7 98 3a 03 6a 97 3d
       -0.008130435 -0.04072247 0.0011656068 0.07393267
000350 bb c5 19 bd 7f 0a e2 3c ac 28 eb 3d 31 73 ea 3d
       -0.037542086 0.027592896 0.11482367 0.11447752
000360 fd a5 e0 bd 2e 57 3b bc a5 c4 ca 3d 7a 01 30 3d
       -0.1096916 -0.0114343595 0.09900788 0.04297016
000370 bf f9 78 bc f7 2d 84 bd 2c 4e 3f be 35 b5 f3 bd
       -0.015196263 -0.064540796 -0.18682164 -0.11899797
000380 c3 65 ec bd 42 3b a5 be fa 47 97 be a0 7e 38 be
       -0.11542847 -0.32271773 -0.295471 -0.18017054
000390 fa 92 a7 3d 7d 75 ea bd 81 5f 55 bb f7 e1 f2 bc
       0.081823304 -0.1144819 -0.0032558145 -0.029648764
0003a0 70 32 1a 3e 83 94 82 3e b5 95 d0 3e c0 b5 f1 3e
       0.15058303 0.2550393 0.40739217 0.47208977
0003b0 93 7a d4 bc 71 db c3 3c 01 c4 35 be 66 cc d6 bd
       -0.025937354 0.023908349 -0.17750551 -0.10488205
0003c0 f7 9d a2 bd f6 c6 58 3d 7a 9b b2 bd 29 3e 8d 3c
       -0.07940286 0.05292412 -0.08721061 0.017241554
0003d0 aa c7 91 bc 71 52 90 3d ab b9 72 3d 37 67 7d bc
       -0.017795403 0.070469745 0.059259098 -0.015466503
0003e0 d2 15 1b 3c 53 88 36 3c dd 2c a4 3c 09 d3 9a bd
       0.009465652 0.011140901 0.020040924 -0.07559783
0003f0 26 44 64 bd 46 5f 80 3c a2 e5 4c bd d0 93 94 b9
       -0.055729054 0.01567043 -0.050023682 -0.0002833889

conv2.bias f4 [16]
000000 66 4b 14 bd 55 16 a6 3c 9e 5c bb be 9b 49 4f 3d
       -0.036204718 0.02027432 -0.365941 0.050607305
000010 ed b7 bc 3e 77 e8 15 3e 2f 5c 2a be f1 9a a5 3d
       0.36859074 0.1463946 -0.16636728 0.08086193
000020 ab 5d 57 3e ba b0 92 bd 0f f0 8e 3d c7 cc 16 be
       0.21031825 -0.07162614 0.06979381 -0.14726554
000030 cc f4 ff bd f6 a9 36 39 9c 70 14 3e bf 46 6e 3d
       -0.12497863 0.00017420188 0.14496082 0.058172937

fc1.weight f4 [120, 576]
000000 8d 08 17 3c 3f 5f 35 bd 90 44 06 bc d0 c1 21 bd
       0.009218347 -0.044280287 -0.0081950575 -0.039491475
000010 27 56 93 39 de f3 55 bb 2e 87 33 bc c5 ee 13 bd
       0.00028102213 -0.0032646577 -0.010957522 -0.03611638
000020 e7 58 98 bc 24 34 10 3d e3 16 9f 3c 6d c2 7b 3c
       -0.01859708 0.035205975 0.019420093 0.015366179
000030 78 b9 83 3c a9 c9 82 bc 4e 67 97 bc f8 e4 cb bb
       0.01607965 -0.0159653 -0.018481877 -0.0062223636
000040 66 cc f6 3c f4 e9 b2 bc 8d ba 2a bb 2b e9 93 3c
       0.030126762 -0.021840073 -0.0026051134 0.01805552
000050 92 67 39 3d 5a e7 f3 bc cb 06 16 3b 0f 04 b6 ba
       0.045264788 -0.029773403 0.0022892233 -0.0013886708
000060 92 5f 19 bd aa 01 9b 3c af d6 81 3c 13 10 fe 3b
       -0.03744466 0.018921692 0.01584944 0.007753381
000070 8c e2 fe 3c c3 9c 90 bc 1f 4d 3c bc 20 38 5b 3d
       0.031113885 -0.017652875 -0.0114929965 0.05352032
000080 40 e6 80 bc d8 84 8f bc fc 2f b3 3c 7e 5f 1c bd
       -0.015734792 -0.0175194 0.021873467 -0.038177006
000090 01 5e 69 bd e2 9b 38 bc d7 92 90 3d 2c 44 ed 3c
       -0.056974415 -0.011267634 0.070592575 0.028963171
0000a0 6a b5 58 3d df 49 24 bc c4 24 75 3b 78 a4 86 bc
       0.052907385 -0.010027378 0.0037405947 -0.016435847
0000b0 7e 65 b7 3c 61 2c e7 3b 61 87 31 3d 54 d1 01 3d
       0.022387262 0.007054851 0.043341998 0.03169377
0000c0 98 59 3c bc 67 0e 6a bc c5 98 03 bd 3e 1a d4 bc
       -0.01149597 -0.01428566 -0.032128114 -0.02589142
0000d0 88 51 cd ba a9 b7 90 bc 71 d5 ac 3c 70 8f 90 3c
       -0.0015664557 -0.017665701 0.02109787 0.017646521
0000e0 41 e5 23 3d c7 c3 5b 3b 7b 23 ef 3c 24 13 11 3d
       0.040013555 0.003353344 0.029191723 0.035418645
0000f0 24 c6 1c 3d e0 b2 78 3d 47 b5 1b 3d 51 64 c5 3b
       0.0382749 0.060717463 0.038014676 0.0060239215
000100 50 b2 0d 3d ad 4c 3e bc f6 fe 57 bc 27 55 18 bc
       0.03459388 -0.011614961 -0.013183346 -0.009297646
000110 4c 57 13 bd 7b 12 81 bc 55 03 ca 3a 80 77 fb bc
       -0.035971925 -0.015755882 0.001541237 -0.03069663
000120 2e d2 b0 3c 3a ed 35 3b 33 e8 33 3d fb 15 2f 3d
       0.021584596 0.0027759806 0.043922614 0.04274557
000130 be d8 ed bc be ba 1b 3d 9e c5 59 3c 9e 37 e7 bc
       -0.029034015 0.038019888 0.0132917445 -0.028224763
000140 d1 aa cd bc 5b 6c 95 bc b6 1b 9a 3c b9 f2 00 bd
       -0.025105866 -0.018240144 0.018812042 -0.03148148
000150 c3 6b b5 3b 34 5b 93 3c 49 a4 d7 3c 77 7d 1f 3c
       0.005536528 0.017987825 0.026323454 0.009734503
000160 bc 43 c0 bc 04 24 f1 bc dc 2c 44 bc 9f 80 c1 3c
       -0.023469798 -0.029436119 -0.011973586 0.023620902
000170 f7 6f 2f 3a 5a e6 83 bb ac 99 4b bc f6 98 0e 3c
       0.0006692404 -0.004025263 -0.012426775 0.008703461
000180 6f 62 9e 3c d2 cd 07 3d 8b 0b 6c bc af 01 20 3d
       0.019334046 0.03315527 -0.014407049 0.039064106
000190 cb 8a 5a 3d af b7 eb 3c 26 2f 69 bb f8 62 c6 bc
       0.05335502 0.02877411 -0.0035581081 -0.024217114
0001a0 93 ad 57 39 60 b0 87 3b 62 bb 02 3c 03 53 bc bc
       0.00020568659 0.0041408986 0.007979246 -0.022988802
0001b0 da ab e2 3c d4 08 c4 3c 06 5c a6 3c c5 05 26 bd
       0.027669836 0.02392999 0.020307552 -0.040532846
0001c0 c0 68 06 bc b0 d7 f4 bc 67 b1 cb bc 99 9a 38 bd
       -0.008203685 -0.029888004 -0.024864865 -0.04506931
0001d0 68 64 1c bd b3 29 91 bc 38 be e7 bc f2 d5 2b 3c
       -0.038181692 -0.017720079 -0.028288946 0.01048802
0001e0 5f d0 0d 3d b2 cc fa bc 95 dc ba 3b bc ae 73 bc
       0.034622546 -0.030615184 0.005702565 -0.014873203
0001f0 08 88 02 3d 45 d2 19 bd 32 83 1d bd 37 5e 96 3c
       0.03186801 -0.037554044 -0.038455196 0.018355472
000200 5c 6d c9 bc 81 68 c6 3c 5b 6d 2f bd f6 13 fb bc
       -0.02458828 0.024219753 -0.0428289 -0.030649167
000210 78 95 05 3d 57 b1 f0 bc 75 82 0f 3b fe d3 86 bc
       0.032613248 -0.029381437 0.0021897827 -0.016458508
000220 4a b0 49 3c 37 e6 3e bc d5 9f 0a 3c ee eb 25 3c
       0.012310097 -0.011651567 0.0084609585 0.010127051
000230 35 62 e7 3c e4 09 aa bc 72 c2 9b 3b c7 b5 5b bc
       0.028245071 -0.02075667 0.0047534043 -0.013410038
000240 02 de a7 bb 6e d4 d0 3c 0e 29 d3 3c 9a 7a 0f 3d
       -0.005122901 0.02549192 0.025776412 0.03502903
000250 20 aa dc 3c b3 95 16 3d 26 87 e7 3c 22 85 2a 3d
       0.02693659 0.036763858 0.028262686 0.04163087
000260 bd fa 3f bd eb ed 27 3c 2b 9f bc 3c 58 82 2e 3d
       -0.046869982 0.010249595 0.023025116 0.042604774
000270 b7 49 eb bc f9 2a f9 bb 2f b9 50 bc 6e b4 8b 3a
       -0.028721673 -0.0076039997 -0.012739464 0.0010658631
000280 dc 0e ff bc 78 6f 87 3c e8 65 51 3c 2b 64 ba 3c
       -0.031135015 0.016532645 0.012780644 0.022752842
000290 3e ec 0d bd a4 dc 57 3d 0d 2d c9 3c 81 92 e9 bc
       -0.034649126 0.052700654 0.024557615 -0.028512241
0002a0 03 60 4a bd 4e 42 3b bd 3d be 68 bd 51 08 e1 bb
       -0.04940797 -0.04571753 -0.05682205 -0.0068674465
0002b0 e9 4c af 3c 7f 94 be bc ea f4 ea 3c d9 f3 4f bd
       0.021398978 -0.023264168 0.028681237 -0.05076966
0002c0 09 78 d6 bc 17 18 34 3a 26 33 55 bc 81 75 08 bb
       -0.026180284 0.0006870045 -0.013012683 -0.002082199
0002d0 2f 9b 50 bc a2 13 07 bd ef a4 a1 3c b5 84 b4 3c
       -0.012732311 -0.032977708 0.019731967 0.022035936
0002e0 79 f0 11 bc b3 5d 1d bd 7c b3 34 bd b0 ea 1f bd
       -0.008907431 -0.038419437 -0.044116482 -0.039042175
0002f0 34 c9 51 bd be b6 a7 3c 10 5e f8 3c 9f 6e d3 bc
       -0.051217273 0.02047288 0.03031829 -0.025809584
000300 91 6d 1d bd cd a9 dd bb af c9 b7 bc a9 eb a7 3d
       -0.03843457 -0.0067646266 -0.022435037 0.081992455
000310 72 68 28 3c a5 d2 06 bd f8 a7 ad 3c 72 ee ce bc
       0.010278808 -0.03291573 0.021198258 -0.025260184
000320 a4 8b 38 bd 97 12 8e 3c 2c 71 04 3d 07 7b 63 bc
       -0.045055047 0.017342849 0.03233449 -0.0138843125
000330 ee 97 7d bc 86 9e 7f bb 68 a2 6d 3c 6a 0d 56 bd
       -0.015478117 -0.00390044 0.014504053 -0.052258886
000340 42 a2 10 3d b1 82 3b 3d 57 2c b6 3c 27 2d 3c 3d
       0.03531099 0.045778934 0.02223794 0.045941498
000350 41 bc 8a 3c ec bb ed 3c 31 bd 24 3d 41 40 04 bd
       0.01693547 0.029020272 0.04021949 -0.03228784
000360 10 e1 a9 bb 07 8d 9a 3c c3 94 07 3b 1b 41 49 bc
       -0.0051843002 0.018866075 0.0020688034 -0.012283589
000370 e2 d7 55 bd c9 37 af 3c 3e f7 32 3c 04 32 01 3c
       -0.052207835 0.021388905 0.010923205 0.00788546
000380 ae 34 92 bc 00 a6 ca bc 8b d7 b7 bc 5d 79 0a bd
       -0.017847385 -0.024737358 -0.022441646 -0.033807147
000390 44 0c c9 3c 3e 82 01 3c 0c eb 26 bc bd 54 24 3d
       0.024541982 0.007904587 -0.0101878755 0.040119875
0003a0 97 46 9b b8 1b 0d e6 bc 1f f1 fd bb 4c 57 67 bd
       -7.404124e-05 -0.028082421 -0.007749691 -0.056479737
0003b0 c2 a9 ec 3c 95 14 89 3b f5 33 10 bd 27 18 2b bd
       0.02888954 0.004183362 -0.0352058 -0.04177108
0003c0 c2 8b 80 3b 27 dc 03 bd 42 c9 2e bd a2 85 15 3d
       0.0039229104 -0.032192376 -0.042672403 0.036504395
0003d0 c7 04 86 bb 73 c9 3e bd 66 b9 a9 3b df 45 5d 3b
       -0.004089925 -0.046578836 0.005179572 0.003376357
0003e0 6c 2b c0 bc bd 12 d6 bc da 06 f8 bc 56 a0 bd bc
       -0.023458205 -0.026131982 -0.030276705 -0.023147743
0003f0 89 4e 92 3c fe 21 df 3a 3f 79 c7 bc cd 16 b0 bc
       0.017859714 0.001702368 -0.024349807 -0.021495247

fc1.bias f4 [120]
000000 b3 cc 9a 3c ca 86 47 bd 03 f3 87 3d a0 c5 32 3e
       0.018896436 -0.04871253 0.06638148 0.174582
000010 11 a3 d6 bc 1b 15 50 bc f5 5c 03 3d b3 80 9b 3d
       -0.026200803 -0.012700344 0.032071073 0.07592907
000020 17 14 29 3e b5 50 af 3d 0d 1a b2 3d d8 f6 7f 3d
       0.1651157 0.085603155 0.08696375 0.062491268
000030 fb e6 68 3e b6 9f c7 3d e3 9e da bc 10 32 ca 3b
       0.22744362 0.09747259 -0.026687091 0.0061705187
000040 42 74 8b bd aa 15 db bd 66 e3 40 3e a1 82 3d 3e
       -0.06809284 -0.106974915 0.18836746 0.18506862
000050 72 7d 83 bd 8e fc b2 3c 16 96 bf 3d 60 c3 2c bd
       -0.06420411 0.021848943 0.093547985 -0.04217851
000060 56 56 d3 bb 66 a3 81 bd 1b 9f bf 3c b1 34 45 3e
       -0.006449501 -0.06329994 0.023391297 0.19258381
000070 43 79 92 3d cd 23 8b 3e 22 25 9c 3d f8 19 26 3e
       0.07152035 0.2717575 0.0762427 0.16220844
000080 6d 53 30 3e 6e b0 2d 3e 46 07 2a 3e 92 d4 4d 3c
       0.17219324 0.16961834 0.16604337 0.012562888
000090 b4 f5 e5 3d 8c f1 28 3e 0e e6 ca 3d d2 23 5b 3b
       0.11228505 0.16498393 0.09907161 0.0033438099
0000a0 66 7e 01 3e aa 94 81 3c 06 45 fa 3d 43 ce 48 3e
       0.12645873 0.015817959 0.122201964 0.19609933
0000b0 30 1a 55 ba 7d d0 94 3e 2b 4e 5a 3d 79 ca df 3c
       -0.00081292074 0.29065314 0.053297203 0.027318226
0000c0 ec 73 b7 bd f3 c5 d9 bc 45 66 07 bc cd 1b 10 3d
       -0.08957657 -0.026583647 -0.008264129 0.035182763
0000d0 08 a0 81 3e df 5d c2 3d 7f dd 6b bb 39 4b 84 3d
       0.25317407 0.09490561 -0.0035990176 0.0645966
0000e0 42 48 8d 3d 38 00 f1 3c dd 80 02 3d f2 e2 10 bd
       0.06898548 0.02941905 0.031861175 -0.035372682
0000f0 76 6f 9a bd 38 42 f7 3d 70 3d 66 3c 3d 38 52 3d
       -0.07540791 0.12073177 0.014052734 0.051323164
000100 8e af 09 bd e8 75 96 3e 12 8c 04 3e af a0 1a 3e
       -0.033614688 0.2938683 0.12944058 0.15100358
000110 d8 83 55 3e 2b f2 bc bc d0 cb 21 3c 6d 06 47 3b
       0.20851076 -0.023064693 0.009875253 0.003036882
000120 ff 7f 4e 3d c8 49 cc bd f0 93 2c bd c7 04 b1 3e
       0.050415035 -0.0997501 -0.04213327 0.34573957
000130 b2 ce bb bc 77 e3 0d bd cb bb b8 3b 46 78 8b 3d
       -0.022925708 -0.034640756 0.005637621 0.0681005
000140 66 4d 07 3e b4 59 9f 3d 96 64 ed 3d 0a d0 0b 3e
       0.13213119 0.077807814 0.11591451 0.1365358
000150 fa 0f 46 3e b2 81 44 3d d7 2a 0c 3e cc dc c9 3d
       0.19342032 0.04797525 0.13688217 0.09856567
000160 63 9f 84 3d 56 0e 2e bd 17 e6 56 3e 74 fa 3d 3c
       0.06475713 -0.04249414 0.2098621 0.011595357
000170 17 82 8f 3c 89 a5 0c 3e 22 32 4f 3e 27 ec b6 3c
       0.017518086 0.13735022 0.20233968 0.022329403
000180 33 58 b0 3d 4b 0f 9f 3d 95 d6 1a bc 76 d9 02 3e
       0.08610573 0.07766589 -0.009450574 0.12778267
000190 4c 36 62 3d cd 43 5f 3e a2 f1 8b 3d 9e 61 5f 3d
       0.055227563 0.21803208 0.06833197 0.054536454
0001a0 c0 86 15 bd f0 2b 59 bd 10 5a 31 3c 10 25 28 bd
       -0.03650546 -0.053020418 0.010824695 -0.04105097
0001b0 7a 58 50 3e 67 61 6c 3e c5 88 c3 3d 94 51 33 3d
       0.20346251 0.23084031 0.09547571 0.04377897
0001c0 44 f2 26 3e bb fb fd 3d 15 9f 79 bc 19 b3 13 3e
       0.16303355 0.124015294 -0.015235682 0.14423789
0001d0 c9 b1 ac bc ba a3 1f bb 54 27 04 3e 3b c7 cc 3c
       -0.021080868 -0.0024359063 0.12905627 0.024997344

fc2.weight f4 [84, 120]
000000 08 a3 14 3d 13 59 8c 3d 05 9b 08 3e 65 0d 1a 3d
       0.03628829 0.06852927 0.13340385 0.03761043
000010 cf b6 a2 bd cd 0f ac bc 74 78 94 bd 6d 6e dc 3c
       -0.07945024 -0.021003628 -0.07249537 0.026908124
000020 6c cc 0d 3e 0f 93 12 3d a7 55 7d 3d 45 08 d6 bc
       0.13847512 0.035784777 0.061849263 -0.02612699
000030 57 10 ef bd d6 96 eb bb cb 1d 81 bd 77 fc fd bb
       -0.116730385 -0.007189612 -0.06304511 -0.0077510434
000040 67 dd d0 3d 80 66 14 bd 85 e3 84 bd 44 0f 07 be
       0.10198479 -0.036230564 -0.064887084 -0.13189417
000050 f7 31 5c bd 58 62 3a bb 35 23 ad bb 31 61 25 3b
       -0.053758588 -0.0028439965 -0.005283738 0.0025234933
000060 fb 71 8b 3a 8a f7 d0 bd 8d 8f 72 bd d8 3c b8 3d
       0.0010638827 -0.10203464 -0.059218932 0.0899598
000070 de 11 2b bd 66 db fc 3d 6f 00 36 bc aa 38 a2 bd
       -0.041765086 0.123465344 -0.011108502 -0.07920964
000080 af 82 88 bd 89 1e f3 3c 44 78 d2 bd e9 c2 5e bc
       -0.06665551 0.029677646 -0.10276845 -0.013596275
000090 de 7b 54 bd 04 0a 65 3d 39 0c 3a 3d 85 b5 67 bd
       -0.05187594 0.055917755 0.045421813 -0.056569595
0000a0 1c 32 db 3c 85 3f 58 bb 3a 6a 1e bc 27 aa bf 3b
       0.026757292 -0.0032996845 -0.009668881 0.005849141
0000b0 08 2d 42 bc e3 0b 14 3d 98 e3 00 be 4f fd e5 bd
       -0.011851557 0.03614415 -0.1258682 -0.112299554
0000c0 91 6e 94 bd f4 55 c6 3b 68 65 ba bc 54 ae 84 3a
       -0.07247651 0.006052727 -0.022753432 0.0010122755
0000d0 f7 d5 be bd e3 99 e7 3c b4 57 b1 3d a3 ca b4 3d
       -0.09318154 0.028271621 0.08659306 0.088277124
0000e0 3f 3d 12 3d aa fa ac bd cd 81 c2 3d 2c 8c e4 bd
       0.03570294 -0.08446248 0.09497414 -0.11159548
0000f0 b2 c3 4b bb 01 52 fd 3d 06 aa 9c 3d c3 0c b7 bc
       -0.0031091985 0.12369157 0.07649617 -0.022344952
000100 e8 b2 c0 bb 5d 59 7d 3d 31 6d cf bd 29 88 07 bd
       -0.0058807023 0.0618528 -0.101282485 -0.033088837
000110 e7 39 fc 3d f6 0a e4 3d 69 72 53 bd 87 be 85 3d
       0.123157315 0.11134903 -0.051622782 0.06530481
000120 82 b1 6a bd 5b f1 b3 3d a7 07 d0 3c f6 bf 1d be
       -0.05729819 0.08786269 0.025394274 -0.15405259
000130 23 85 80 bd 38 64 de bc a2 4c 67 bd a6 ba ca bd
       -0.06275394 -0.027147397 -0.056469567 -0.098988816
000140 91 68 ec bb 6b 68 b8 bd 34 9f 85 3d 23 ce 64 bb
       -0.0072146137 -0.09004291 0.06524506 -0.0034912906
000150 44 21 6d 3d cc 78 8f 3b 3b d5 95 3d c0 8d dd 3a
       0.057893053 0.004378414 0.07316061 0.0016903207
000160 d2 c6 ed 3d 1a a8 57 3c 3e cc c4 3d a8 3f 95 bd
       0.116101876 0.013162637 0.096092686 -0.07287532
000170 44 62 97 3c 88 d8 fd 3d 5d f4 07 be 70 3e 3a 3c
       0.018479474 0.12394816 -0.13276811 0.011367425
000180 41 3e 73 3d 8c 95 a3 bd e3 77 95 bd 16 ca bb 3c
       0.05938554 -0.07987508 -0.07298257 0.02292351
000190 5f 2d c4 bb d2 99 dd bc 7e 18 e2 3d 2e 50 b8 3d
       -0.005986854 -0.027050886 0.11039828 0.08999668
0001a0 49 e2 e5 bd 0a 62 ed bd 9b 53 6c bd 25 68 67 bc
       -0.11224801 -0.11590965 -0.05769692 -0.014123951
0001b0 41 ee 1c bd 04 92 7a bb dc 6b 9e bd e8 93 9b bd
       -0.038313154 -0.0038234005 -0.07735416 -0.0759657
0001c0 56 4d c7 bd 22 f8 de bd 96 d3 34 bc 8d c0 1a 3d
       -0.097315475 -0.10887171 -0.011036774 0.037781287
0001d0 95 4d d2 bc a1 c4 2c 3d 4a 47 4e ba e7 53 6a bd
       -0.02567176 0.042179707 -0.0007868899 -0.05720892
0001e0 e6 40 c0 bc 28 c2 16 3d 9b a1 29 3b 26 37 2a 3d
       -0.023468446 0.036806256 0.0025883678 0.0415565
0001f0 bf d4 7d 3d fd fa b8 bb 84 de 94 3d ef 77 a1 bd
       0.06197047 -0.0056451545 0.07269004 -0.07884204
000200 c0 cb a3 3d b3 c5 05 bd 67 75 98 bd 8e 99 90 3d
       0.079978466 -0.032659244 -0.07444268 0.07060538
000210 a3 59 9f bc 2b c3 15 3d 92 fe 77 3d b6 3a 03 3d
       -0.019451922 0.03656308 0.06054551 0.032038413
000220 53 d4 26 3d 4c 7e 93 bd c7 d0 2c 3c 5d 45 6a bd
       0.040729832 -0.072018236 0.010547823 -0.057195056
000230 ad de 9b 3d 05 4a 72 3d 58 bb 54 3d e0 34 6f 3d
       0.076108314 0.05915262 0.051936477 0.058400035
000240 65 52 4e bd 66 22 7d 3d 14 42 0e 3d 29 16 b0 bd
       -0.050371546 0.061800383 0.034730986 -0.08597977
000250 fc 7d 2f bb 8e f4 86 3d 42 19 62 bd 5e 1d 9e bd
       -0.0026777973 0.06589614 -0.05519987 -0.07720445
000260 6d 7b d3 3c 08 95 7f 3d 5b a9 85 bd b0 ab 67 3d
       0.02581569 0.062397987 -0.065264426 0.05656022
000270 06 0c 98 3d aa ad d5 bc 91 8f e2 3b 3b db c3 bd
       0.07424168 -0.026083786 0.006914087 -0.09563299
000280 83 b6 84 bd 2a 43 5b 3c 5a 68 c5 3c 58 47 a5 bd
       -0.06480124 0.013382712 0.02409761 -0.08070248
000290 1e 60 26 b9 d1 42 b7 3d b4 70 91 3d 90 b4 52 3c
       -0.000158668 0.08948291 0.071015745 0.012860432
0002a0 b7 f5 27 bc 6e 69 67 bb 98 ab ae 3d 28 cb 99 bd
       -0.010251454 -0.0035310644 0.08528823 -0.07509452
0002b0 ba ea 9c bd a0 fd ed bc a7 60 ae 3c bf 62 ce bd
       -0.07661958 -0.029051602 0.021286322 -0.10077428
0002c0 16 c5 1a 3a ce 8f e4 bc f9 cb 65 3d 5f 48 b2 3d
       0.0005904002 -0.027900603 0.056102727 0.0870521
0002d0 39 f0 49 bd 5a 24 98 bc 69 69 37 bd 80 18 f5 3c
       -0.04930136 -0.018572021 -0.04477826 0.02991891
0002e0 c4 dc 8c 3b d3 ff 6c 3d 81 5f b1 38 8a 38 f1 bc
       0.0042987783 0.05786116 8.457807e-05 -0.029445905
0002f0 06 e3 79 bd 13 a0 86 3d 66 bd da bc e2 71 ba 3c
       -0.061007522 0.065735005 -0.02670164 0.022759382
000300 d5 ea 8b bc e1 cb f8 3d 8b 39 3c bd f9 39 84 3d
       -0.01707975 0.12148262 -0.045953315 0.0645637
000310 d2 fc 8e 3b 54 56 60 bd d5 60 8a ba 1f de ec 3b
       0.0043636346 -0.05476983 -0.0010557423 0.0072286273
000320 e2 f0 af 3c 45 04 ce bd 91 0d 91 bc b9 40 4b bd
       0.021477167 -0.10059408 -0.017706664 -0.04962227
000330 5e 82 d2 bc ec 93 46 bd 66 a4 77 3c 55 a6 24 bc
       -0.02569693 -0.048480913 0.015114879 -0.010049422
000340 d3 56 c5 38 af d5 20 3d 42 14 09 bd a6 19 63 3d
       9.409864e-05 0.039266285 -0.033466585 0.055444382
000350 ea e3 85 bc 73 ed 94 bd e7 c3 b9 bd 27 d2 81 3c
       -0.01634403 -0.07271852 -0.090705685 0.015847279
000360 3c cf 68 3d 00 f6 4d bd c1 21 03 be 67 fc 84 3c
       0.05683826 -0.050283432 -0.12805845 0.016233636
000370 26 2f c8 3c 1a 7f cf 3d db 37 c5 bd dc 6e a0 3d
       0.024436545 0.101316646 -0.09629794 0.07833645
000380 52 29 12 3d 77 42 8f 3a a8 eb bd 3c df 14 f0 bc
       0.035683937 0.0010929842 0.023183659 -0.029306827
000390 50 5a 8b bc 2c 7c 84 3d c0 f8 b4 bd e7 14 a0 3d
       -0.017010838 0.064689964 -0.08836508 0.07816487
0003a0 50 35 72 bd 1a 77 f3 ba 3a e1 4a 3d 58 57 b5 bc
       -0.059132874 -0.0018574924 0.0495312 -0.022136375
0003b0 6d 2e ca 3c b7 31 e9 3c a8 ca e4 3a fe 17 bb bd
       0.02468034 0.028466089 0.0017455416 -0.091354355
0003c0 e6 37 4d bd 1d 98 92 bc 3a 5b 11 3c 0f c4 8f 3d
       -0.050102137 -0.017894799 0.008871848 0.07019817
0003d0 28 7c 31 3d 79 c0 ea 3d bd 69 04 bd d9 f8 17 bd
       0.043331295 0.114624925 -0.032327402 -0.037102554
0003e0 dc 24 66 bd a1 2d b4 ba fe 81 5e be 93 df b5 bd
       -0.056187496 -0.0013746509 -0.21729276 -0.08880534
0003f0 62 57 83 bd 59 75 18 3d 84 dd 4f 3d 35 d8 94 3d
       -0.06413151 0.037221286 0.050748363 0.07267801

fc2.bias f4 [84]
000000 2f 3c 32 3e 1f 05 8d bc 9c 45 a4 3d de cc 4c bd
       0.1740577 -0.017214356 0.080210894 -0.050000064
000010 93 4e 30 3e bf 8c 46 3e c7 8c 79 bd fe 3c 9b 3d
       0.17217474 0.19389628 -0.06092527 0.07579993
000020 d8 34 12 3e b6 5b 8a bc 71 22 4a bc f4 a9 53 bd
       0.14277971 -0.016889434 -0.012337313 -0.05167575
000030 b2 95 7a 3e 89 a2 c4 bd d2 b1 2c bd 3c 6f 8a 3d
       0.24471167 -0.096013136 -0.04216177 0.067594975
000040 c5 30 10 3d 9e 34 3b 3e 3d 72 88 3e 1f f6 4e 3e
       0.03520276 0.1828179 0.26649657 0.20211075
000050 26 fd fe 3d aa 29 dc 3d ae 1f 52 bd 1e 7a 06 3e
       0.12450628 0.10750134 -0.051299743 0.13132522
000060 63 33 08 3e ea cc a0 bd 1f 4c b1 bd e1 d4 47 3e
       0.13300852 -0.07851584 -0.08657097 0.195148
000070 0a 98 83 bc 7f 29 7c 3d b2 6c ce bc d3 20 72 3e
       -0.016063709 0.06156301 -0.025198314 0.23645334
000080 b0 0b a1 3d 6b e5 28 3e 21 7f 68 3e d8 9e 54 3e
       0.07863557 0.16493766 0.22704746 0.20763719
000090 11 7e 9a bd f3 3b 87 bd 51 c5 e4 3d f1 bb 94 3c
       -0.075435765 -0.06603231 0.111704476 0.018156024
0000a0 b7 6b a0 bd 60 fd 1e 3e 5f 53 43 3e 9c bc ad 3d
       -0.07833045 0.15526342 0.19074772 0.0848324
0000b0 b1 cb 92 3e 2a 1b cc 3c e1 94 1d bc c2 1e 74 bc
       0.2867103 0.024915297 -0.009618015 -0.014899911
0000c0 99 06 97 bc 60 29 7f bd fa f5 41 3e 1a 2c 7a 3e
       -0.018435763 -0.062295318 0.18941489 0.24430886
0000d0 c3 1c bf 3d 69 2b 91 3d 27 41 43 3d 79 56 60 3e
       0.09331658 0.07088358 0.047669556 0.21907987
0000e0 51 9e 3a 3e 58 49 86 3e 34 81 7c 3e 19 aa a3 bc
       0.18224455 0.26227832 0.24658662 -0.01997857
0000f0 68 d5 e2 3d 40 89 f9 3d 5a 47 bb 3d 67 52 50 3d
       0.1107586 0.121843815 0.091444686 0.050859835
000100 4c 1d 91 3d 97 90 5b 3e e5 c2 04 ba ab 68 24 3e
       0.07085666 0.21441875 -0.0005064442 0.16055553
000110 3c d4 65 3c ee 06 85 3d 4e 0c 15 bc fb 0d 7a 3d
       0.014027651 0.06495462 -0.009097172 0.06104849
000120 90 fd c7 3e e5 fa 29 bc ed 1d 8e 3e 51 a2 74 3e
       0.3906064 -0.010374759 0.27757207 0.23890044
000130 7a f1 36 3e ff 2e 6c 3e 2d f9 0b 3e 4b 01 10 3c
       0.17865553 0.23064803 0.13669272 0.008789371
000140 e3 25 90 3e 75 5f 2f 3e e4 22 12 3e bc 0c 8b 3b
       0.28153905 0.17126258 0.14271122 0.0042434614

fc3.weight f4 [10, 84]
000000 5b ad d1 3d 01 41 5b bd eb b2 53 be 69 c1 04 be
       0.10238143 -0.05352879 -0.2067372 -0.12964405
000010 d4 a8 95 be c1 2b 8a 3e 73 a0 bb 3d c2 47 b3 be
       -0.29230368 0.26986507 0.09161463 -0.35015684
000020 47 c6 61 bc 56 42 6a 3e 16 5c 38 be 43 ee 8d bd
       -0.013780183 0.22876868 -0.18003878 -0.069302104
000030 bb e3 30 bd fe 97 d0 bc 00 84 04 be 00 f5 ed bc
       -0.04318593 -0.0254631 -0.12940979 -0.02904749
000040 4e 27 2a 3e 14 89 96 be 66 11 07 3e 39 83 75 3e
       0.16616556 -0.29401457 0.1319023 0.23975839
000050 27 be 6a 3e b2 40 71 bd 71 ed 17 3e fe 94 ad 3e
       0.229241 -0.05889959 0.1483667 0.33902735
000060 c3 aa 89 be ff e1 2f bd 97 c3 0a be 67 6c 80 be
       -0.26888093 -0.042940136 -0.13551174 -0.25082704
000070 0f a9 10 bc 8f ff 62 bd dc 4c ab bc a6 8e 3a be
       -0.008829369 -0.0554195 -0.020910673 -0.18218479
000080 02 8b 74 3c 93 21 a4 bd 4c d7 1d be 25 a5 86 3e
       0.01492572 -0.08014216 -0.1541416 0.2629787
000090 42 02 aa 3d c6 1d cc 3b b1 57 a8 bd 69 99 5a bd
       0.08301212 0.006229135 -0.08219851 -0.05336896
0000a0 6f 1c d6 3c 87 9d 67 3e a2 96 3f bd 61 71 0c be
       0.026136605 0.22618686 -0.046774514 -0.13715126
0000b0 6a 2b 43 be 1d 6c ee bd 58 6e 87 bd a8 d9 8c bb
       -0.1905953 -0.11641715 -0.06612843 -0.0042984076
0000c0 f0 e7 3c bd 18 8e 59 bd ab 17 98 bd 3a 18 a3 3d
       -0.04611963 -0.053114027 -0.07426389 0.07963605
0000d0 b9 a8 7e 3e 37 6f d9 3d fd a6 d3 3d 5a 9f 86 3e
       0.2486905 0.10616916 0.10334585 0.2629345
0000e0 bd 06 9e bc 85 f0 9a bd 69 f7 75 be ce 1e 5c 3c
       -0.019290322 -0.07565407 -0.2402016 0.013435079
0000f0 3c 3f 3b 3d 27 82 62 bd 89 80 78 be 7b 0b a8 3c
       0.045714602 -0.055299904 -0.24267782 0.020513287
000100 9d 3f ec bd b1 a7 43 be ae d3 b3 bd 7c 29 e3 3e
       -0.11535571 -0.19106938 -0.08780609 0.44367588
000110 b0 ae e7 bc 18 cc 5e 3e 4a 29 5e 3d c8 22 ab 3d
       -0.02828154 0.21757543 0.054238595 0.08356243
000120 c7 ea 8e be b3 ca 4d bd 94 64 a8 be 7f 25 92 be
       -0.27913496 -0.050242137 -0.32889235 -0.28544232
000130 a6 28 5c bd 43 a9 8f be 87 ce 7d 3d b2 c2 02 bc
       -0.053749703 -0.28058824 0.061964538 -0.007980989
000140 b3 a8 92 3d c7 76 27 3e 3b 56 e5 3e 78 8e 60 3e
       0.07161083 0.16353904 0.4479235 0.21929348
000150 25 c2 00 be 37 22 9f bd 5c b1 ea bd b2 0b 0c 3e
       -0.1257406 -0.07770198 -0.1145961 0.13676336
000160 94 05 76 be 94 5f bd be 45 ac 9c bd 07 32 42 3e
       -0.24025565 -0.36986983 -0.07650045 0.18964396
000170 8d 71 8d 3e cf 72 95 3d 6d 24 95 bd 8d 9a ef 3c
       0.27625695 0.072972886 -0.07282338 0.0292485
000180 70 f4 e2 3e 82 5c 50 3d 25 35 a5 bd b6 b5 34 3d
       0.44327116 0.050869472 -0.08066777 0.044118606
000190 db 10 af bc 55 ed 17 be 78 0a 36 be 38 bf 59 bd
       -0.021370342 -0.14836629 -0.17777431 -0.053160876
0001a0 54 0c c6 3d 6b 63 a7 bd f1 dc 97 bd d9 7d a2 3d
       0.0967032 -0.08173259 -0.07415188 0.0793416
0001b0 5d 49 99 3e 8e ff aa 3d 90 0f 92 3c 3d 43 67 3d
       0.29938784 0.083495244 0.017829686 0.056460608
0001c0 3c 0a f3 bb 76 a6 6c bd 3c 65 8e 3b 58 84 d3 3d
       -0.0074169915 -0.057775937 0.004345564 0.10327977
0001d0 3d b9 94 bd 3f 27 71 be d8 d7 5a 3e bb 52 2e 3e
       -0.07261894 -0.23550127 0.213714 0.17023747
0001e0 2d af e4 bd 57 c8 9d 3d 03 06 54 bd 82 8b 15 bd
       -0.11166225 0.077042274 -0.051763546 -0.03651
0001f0 c1 c0 0e bd 1f 3d 88 3e e8 37 bc bd 53 8c ae bc
       -0.034851793 0.26609132 -0.09190351 -0.021307146
000200 39 63 37 3e 1d 52 31 3e 56 ae 96 bd b9 23 0c bd
       0.17908944 0.1731648 -0.07357471 -0.034213755
000210 d9 e6 9b 3d 5f 19 bb 3a a1 b0 40 3e eb 09 da 3e
       0.0761239 0.0014274529 0.18817379 0.42585692
000220 9b 5b 07 bc 41 a4 2a be b4 d2 e0 bd 69 41 a3 3d
       -0.008261587 -0.1666422 -0.109776884 0.0797146
000230 3f c7 02 3e 8f 32 4b be 83 05 3e be 04 62 65 3b
       0.12771319 -0.19843505 -0.1855679 0.0035001049
000240 66 b7 7e 3d 2b 79 02 3e 4b 13 25 bc 84 37 db bd
       0.06218662 0.12741534 -0.010075401 -0.10703948
000250 42 5f b8 bd ca 03 c5 3e ab 1b 01 bc 26 e1 56 3e
       -0.09002544 0.38479453 -0.007880132 0.20984325
000260 9c 99 38 3d e8 dd 10 be 57 ac d9 bd 9b 6e 33 be
       0.04506837 -0.1414715 -0.10628574 -0.17522661
000270 b1 d9 ad be ef ec 12 3d fd 78 9f 3e f5 ab 7b be
       -0.33955148 0.03587049 0.31146994 -0.24577315
000280 12 79 85 be 1d 74 af 3d 77 5f 8a 3d 1b 41 bf 3d
       -0.26068932 0.08567069 0.0675649 0.0933859
000290 8b fe bf be 60 9b 94 3d 9d e2 c4 3d 29 3b b6 bd
       -0.37498888 0.07256198 0.096135356 -0.08898003
0002a0 89 46 8a be 80 f0 92 bd ef c6 bd 3e 1c 68 17 bb
       -0.2700694 -0.07174778 0.37065837 -0.0023102826
0002b0 b7 58 97 be 85 a4 a2 3e f2 4d 89 bd 81 30 fc 3d
       -0.29559872 0.31766143 -0.0670432 0.12313939
0002c0 a3 d7 a8 be 79 fd a2 3b c3 bf 48 3e e4 75 e7 bd
       -0.32977018 0.004974064 0.19604401 -0.11301783
0002d0 a8 b1 ad bd b8 ee a0 bc 65 59 f7 3d 51 7b fa bd
       -0.08481151 -0.01964508 0.120775975 -0.12230552
0002e0 f1 7a dd 3d 73 02 15 3e bd 33 d7 3d 13 20 c3 be
       0.10814465 0.14551716 0.10507915 -0.38110408
0002f0 64 1c 9e bd f1 f4 94 3e bd 16 af bd 3a 53 f5 bd
       -0.07720259 0.29093125 -0.08549259 -0.11978765
000300 f6 cb c8 bd 46 bd eb bc 45 78 10 bd 2f 1e 3c bd
       -0.098045275 -0.028776776 -0.035270948 -0.045927223
000310 ae 2d ac bd 3c 70 ed 3b b3 e7 a3 3d 4f cb aa 3e
       -0.0840715 0.0072460454 0.080031775 0.33358237
000320 31 6f 51 bd bb cc 8c be 3d 78 6d be 62 ca ee 3e
       -0.05113143 -0.27499947 -0.23190399 0.4663878
000330 25 76 1a be c6 34 e4 3d 8a da 5c be ee 01 57 bd
       -0.15084131 0.11142878 -0.21567741 -0.052492075
000340 21 b5 5e bd 53 36 43 be cf 6e 5b bd 80 17 97 bd
       -0.054371957 -0.19063692 -0.053572472 -0.07377529
000350 d1 a1 83 be 7c b4 88 bd 12 21 fd 3d 3f 37 b5 bc
       -0.25709394 -0.0667505 0.12359823 -0.02212107
000360 90 79 a9 bc 9f 95 80 3d b5 82 b4 3e fc 03 5c be
       -0.020687848 0.06278538 0.35255972 -0.21485895
000370 bf cb 6d bd 2d 28 5d 3e 06 35 72 3e 60 5f 28 bd
       -0.058055636 0.21597357 0.2365304 -0.04110658
000380 8e 4e 8c bd 6f 7d 27 3e 02 7d 9b 3e 6a 67 b3 bd
       -0.068509206 0.16356443 0.3036881 -0.08759959
000390 2e 86 39 be 88 3a 30 be f6 31 35 be fa fe 44 bd
       -0.18117592 -0.17209828 -0.1769484 -0.048094727
0003a0 92 f4 84 bd c1 9b b4 3d 7a e8 b4 bd 63 94 55 3e
       -0.064919606 0.0881877 -0.08833404 0.20857386
0003b0 0c fd 22 be 65 4f 1f bd a4 73 a1 3d 4b a3 6f be
       -0.15916842 -0.038894076 0.07883385 -0.23402135
0003c0 42 23 a4 3d 2f db ec bd 4f cc 9d 3e b4 40 3c 3e
       0.080145374 -0.115652435 0.30819938 0.18384057
0003d0 db c2 6f be 1c dd 2f bc 96 c8 50 be 5f dc 0e bd
       -0.23414175 -0.010733869 -0.20389017 -0.03487813
0003e0 b3 90 57 be fb 35 81 3e ba 00 ec bd bb c3 7d bd
       -0.21051292 0.25236496 -0.11523576 -0.06195424
0003f0 d3 58 0b bc 9b f3 b1 bd dc ba 37 be 26 31 03 be
       -0.008505064 -0.08689042 -0.17942375 -0.12811717

fc3.bias f4 [10]
000000 40 15 98 be 54 d6 c9 3d 4c e2 8c 3e 82 22 88 3e
       -0.29703712 0.09855333 0.275164 0.26588827
000010 4f 4e 14 3c db 99 98 3d a5 04 9e 3c 6d 8a 85 be
       0.009051873 0.074512206 0.019289324 -0.26082173
000020 8e 59 c7 bd d4 2c 71 be
       -0.09733878 -0.23552257
